dqn/p2_DQN/checkpoint.pth (torch_old, 21023 bytes, 6 tensors)

fc1.weight f4 [64, 8]
-0.5510175 -0.53879166 -0.72294307 -0.61321676 0.35414273 0.14029433 0.10202386 0.42991844
-0.10827088 0.20584445 -0.14811371 0.17614102 -0.61130154 -0.97963953 -0.19076629 0.6695084
0.23587877 -0.69414407 -0.49284598 -0.24075454 0.7471678 0.6577439 0.50093895 0.23332448
0.5594006 0.03791904 0.74703354 -0.81854844 0.055007637 -0.10811535 -0.2352828 0.42962858
0.09872418 -0.7115202 -0.17299289 -0.8857088 0.4543862 0.30673483 0.46540803 0.28209338
0.50800085 -0.46369743 0.34421483 -0.5391674 -0.57243294 -0.2715824 0.2923398 0.0136414375
-0.4927254 0.8627436 -0.36319137 0.8974782 0.7622144 -0.042478334 0.56683195 0.2929187
0.11523082 -0.84058523 -0.053804915 -0.61478597 0.6281099 0.7207133 -0.18552747 -0.97253615
0.102357216 0.92580885 0.15951034 -0.13593072 0.02560118 -0.36885238 -0.38017684 0.0039992826
-0.057261117 1.4934658 0.18764457 1.1089829 0.7146387 -0.56110555 0.34814116 -0.13410342
0.17119452 0.1286301 0.5432997 -1.5276761 -0.010592381 -0.05767791 -0.22921617 -0.05426892
0.4675335 -0.20664927 0.4594353 -0.12864292 0.1416724 0.8980898 -0.36273172 -1.0696447
0.5515132 -0.5390004 -0.09074877 -0.57263094 0.70551616 0.6006988 -0.28723437 -0.78463846
0.07146577 -0.69598603 -0.024484687 -0.91327935 0.51205945 0.38114882 0.37591434 0.17961155
0.00011785921 0.13603957 0.90744066 -0.7064913 -0.64600015 0.19762084 0.13048474 0.4356787
0.53295696 -0.0041332785 -0.12204979 0.26522252 -0.5043646 -0.812574 -0.53149676 0.18776618
-0.06389789 -1.0457067 0.118445866 -0.69424826 -0.37511104 -0.09507622 0.35132065 -0.25930882
-0.15614034 0.07421047 0.2845956 0.029592616 0.028923208 1.1252261 0.5178693 -0.9620377
0.05771794 -0.42106274 -0.1986597 -0.0042262003 -0.10266537 -0.80700105 -0.8142322 0.17332762
0.19570397 -0.23647153 0.2062237 -1.3587015 0.14036353 -0.5982264 -0.20353812 -0.30131185
-0.13212022 -1.1122935 -0.663212 -0.398896 -0.3974192 -0.10958681 0.060441475 0.42651355
-0.013867461 -0.94910544 0.19788481 -0.47007528 1.1353297 0.6797153 -0.32074985 0.26303077
0.57063526 -0.72166675 0.26897472 -0.8137725 0.22577614 -0.023358664 0.31510964 0.4019374
0.7894568 -0.5056027 0.031254742 -0.2683132 -0.48419705 0.030416304 0.3589311 0.17258103
0.13477759 0.20030434 -0.11660982 -0.38931707 -0.32392928 -0.2961605 -0.47319576 0.31812957
0.01181824 1.2789994 -0.48874772 0.0301203 0.2420392 1.0654653 -0.58373153 0.9846169
0.44749105 -0.4037398 0.12092514 -0.34557763 0.012863707 -0.03206354 -0.022953968 0.40779835
-0.13829677 -2.0147705 0.5946676 -1.1805763 -0.41171724 0.53020203 0.28067604 -0.054140043
-0.5825631 -0.36943835 -0.48009595 0.008407451 -0.30918998 -0.25300026 0.22254351 0.48021868
0.27351165 -0.4022921 0.6265185 -0.87277704 0.52664524 -1.1857989 -0.31806925 0.22225119
0.9336354 0.38615906 -0.937371 0.12188839 0.5563232 -0.86813956 0.18832256 -0.46245283
0.4855054 -0.34011775 -0.096298926 0.2533159 1.5809907 -0.13546711 -0.44580853 0.22538699
00000000: 7c0f 0dbf 40ee 09bf cc12 39bf c6fb 1cbf
00000010: 3252 b53e 51a9 0f3e e3f1 d03d 451e dc3e
00000020: 20bd ddbd e3c8 523e 1fab 17be 505e 343e
00000030: 427e 1cbf a8c9 7abf 3d58 43be e764 2b3f
00000040: 348a 713e 6db3 31bf 4f56 fcbe 5c88 76be
00000050: 6446 3f3f e761 283f 893d 003f 9dec 6e3e
00000060: e134 0f3f ff50 1b3d 973d 3f3f 648c 51bf
00000070: b04f 613d 956b ddbd f9ed 70be 47f8 db3e
00000080: e72f ca3d 3026 36bf 0c25 31be d0bd 62bf
00000090: 4fa5 e83e 590c 9d3e f649 ee3e 8b6e 903e
000000a0: 580c 023f c069 edbe ed3c b03e e006 0abf
000000b0: f78a 12bf d90c 8bbe 90ad 953e 5680 5f3c
000000c0: 8146 fcbe c4dc 5c3f 38f4 b9be 22c1 653f
000000d0: 7c20 433f c3fd 2dbd e61b 113f 71f9 953e
000000e0: 23fe eb3d 9830 57bf 8b62 5cbd 9d62 1dbf
000000f0: cfcb 203f ab80 383f eafa 3dbe 21f8 78bf
00000100: a9a0 d13d cf01 6d3f ae56 233e 6c31 0bbe
00000110: 91b9 d13c 38da bcbe 8aa6 c2be 6a0c 833b
00000120: a28a 6abd e329 bf3f e625 403e 27f3 8d3f
00000130: 90f2 363f 9da4 0fbf 8f3f b23e 6852 09be
00000140: 9e4d 2f3e 9cb7 033e b015 0b3f e48a c3bf
00000150: aa8b 2dbc ac3f 6cbd a5b7 6abe 1649 5ebd
00000160: 8d60 ef3e de9b 53be 1b3b eb3e f8ba 03be
00000170: 9212 113e 37e9 653f f9b7 b9be 1eea 88bf
00000180: f82f 0d3f eefb 09bf 7eda b9bd f197 12bf
00000190: b59c 343f 66c7 193f 6210 93be 11de 48bf
000001a0: a55c 923d 242c 32bf 1c94 c8bc adcc 69bf
000001b0: 5416 033f f025 c33e d877 c03e 17ec 373e
000001c0: 2e2b f738 f54d 0b3e 084e 683f 9ddc 34bf
000001d0: 4460 25bf 1e5d 4a3e cb9d 053e 4711 df3e
000001e0: de6f 083f 7470 87bb 3ef5 f9bd 3fcb 873e
000001f0: 0a1e 01bf da04 50bf 2c10 08bf c745 403e
00000200: e6dc 82bd b8d9 85bf bf93 f23d 41ba 31bf
00000210: 8e0e c0be 52b7 c2bd 4de0 b33e 20c4 84be
00000220: 41e3 1fbe a9fb 973d 84b6 913e 376c f23c
00000230: 5df0 ec3c 6907 903f 1593 043f 1a48 76bf
00000240: a669 6c3d 8995 d7be 736d 4bbe f07b 8abb
00000250: 3942 d2bd 9f97 4ebf 8571 50bf cc7c 313e
00000260: 9f66 483e 9825 72be 4e2c 533e eee9 adbf
00000270: 75bb 0f3e 5e25 19bf 4c6c 50be 8c45 9abe
00000280: 864a 07be a25f 8ebf 43c8 29bf 193c ccbe
00000290: 887a cbbe 0d6f e0bd 7b91 773d fc5f da3e
000002a0: 5934 63bc 93f8 72bf 51a2 4a3e b5ad f0be
000002b0: 7c52 913f d201 2e3f 5339 a4be f8ab 863e
000002c0: 2715 123f 27bf 38bf 0eb7 893e 6553 50bf
000002d0: dc31 673e ab5a bfbc 0d56 a13e bdca cd3e
000002e0: d719 4a3f 2e6f 01bf f904 003d 5960 89be
000002f0: ade8 f7be 9d2b f93c d1c5 b73e 15b9 303e
00000300: 2303 0a3e 951c 4d3e 21d1 eebd 9154 c7be
00000310: 0fda a5be 59a2 97be b746 f2be e1e1 a23e
00000320: 4ba1 413c 41b6 a33f 243d fabe d9be f63c
00000330: 20d9 773e 2b61 883f 6e6f 15bf da0f 7c3f
00000340: 8c1d e53e fcb6 cebe 9aa7 f73d 8def b0be
00000350: 4cc2 523c 0f55 03bd f609 bcbc f2ca d03e
00000360: ab9d 0dbe 00f2 00c0 233c 183f 201d 97bf
00000370: 9acc d2be 52bb 073f c5b4 8f3e f3c1 5dbd
00000380: db22 15bf 0627 bdbe 23cf f5be 68bf 093c
00000390: 264e 9ebe 4089 81be 72e2 633e 39df f53e
000003a0: b809 8c3e 3bf9 cdbe 8463 203f 516e 5fbf
000003b0: 39d2 063f 42c8 97bf f9d9 a2be d195 633e
000003c0: bb02 6f3f a4b6 c53e 8cf7 6fbf 9fa0 f93d
000003d0: 326b 0e3f 653e 5ebf a1d7 403e 9ec6 ecbe
000003e0: 2a94 f83e ea23 aebe 5f38 c5bd 9fb2 813e
000003f0: e75d ca3f e4b7 0abe 0441 e4be d9cb 663e

fc1.bias f4 [64]
-0.28519738 -0.23355857 0.2712566 0.07801526 -0.09574434 -0.14045939 0.75940603 -0.040490497
0.39185306 -0.024968233 0.44315636 -0.09672574 -0.34548792 0.04961422 0.41523492 0.1916352
0.32484022 -0.1850659 0.46717653 0.6467304 -0.33249995 -0.057357114 -0.12777218 -0.13589686
0.1015217 -0.11113798 -0.11723589 0.12641056 -0.106390744 -0.035820954 0.20885341 0.37927344
-0.17596674 0.6959769 -0.2904378 0.81523484 0.6910226 0.41825542 -0.33543846 -0.23079818
0.3622647 0.20052974 0.117123894 0.21403368 0.10175613 0.24625392 0.20676294 0.26413965
0.06616122 0.090653405 0.066448316 0.33641022 -0.065935835 0.7546216 0.18906896 0.2580255
0.4823885 0.39380825 0.6963632 0.33090675 0.6785348 -0.02230555 0.20045708 0.38792497
00000000: 6405 92be fa29 6fbe 25e2 8a3e 77c6 9f3d
00000010: 9c15 c4bd 96d4 0fbe 6f68 423f 5dd9 25bd
00000020: f7a0 c83e 2e8a ccbc 64e5 e23e 2518 c6bd
00000030: cbe3 b0be 4838 4b3d ac99 d43e 053c 443e
00000040: 7551 a63e ea81 3dbe c331 ef3e 2090 253f
00000050: 6f3d aabe 4bef 6abd b6d6 02be 8c28 0bbe
00000060: 9cea cf3d 4f9c e3bd 5f19 f0bd c571 013e
00000070: 64e3 d9bd feb8 12bd abdd 553e 2130 c23e
00000080: a030 34be 8b2b 323f 43b4 94be 3bb3 503f
00000090: dbe6 303f 9325 d63e 97be abbe 5c56 6cbe
000000a0: c27a b93e ab57 4d3e a7de ef3d a52b 5b3e
000000b0: 8565 d03d fd29 7c3e aab9 533e 503d 873e
000000c0: 897f 873d 7ea8 b93d 0e16 883d f63d ac3e
000000d0: 5e09 87bd e22e 413f 4b9b 413e eb1b 843e
000000e0: a0fb f63e 3ca1 c93e dc44 323f 9c6c a93e
000000f0: 75b4 2d3f 21ba b6bc 9f44 4d3e 1a9e c63e

fc2.weight f4 [64, 64]
0.6999824 -0.028390871 0.21600503 0.3062702 0.6459255 0.10642294 -1.1069932 0.31225187
-0.22685784 -0.68386567 0.1568456 0.3014113 0.31165275 0.5713325 0.03854952 -0.023275426
0.009146503 0.19148545 0.01656086 0.1314441 0.048207827 0.33183223 0.3084193 0.36509117
0.026208906 -0.5797321 0.12184771 0.10149103 0.093751565 -0.029481433 -0.008682676 -0.2506996
0.74616456 -0.13093458 0.30827117 -0.879285 -0.58098346 0.06254744 0.04433936 0.3909358
0.23097989 0.43228033 0.13022405 -0.16387132 -0.23419091 -0.61509603 0.022162998 0.011110989
-0.17789014 -0.15848616 0.11569298 -0.1977627 0.006115918 0.21591778 0.32536158 -0.8697297
0.046034306 0.111479156 0.17583577 0.22053939 -0.7815948 -0.087708324 -0.3823136 0.17364052
0.5120862 0.2105159 0.2676216 0.17387526 0.58698267 0.25725052 -0.960513 0.27509362
-0.33479884 -0.5069257 0.10540389 0.3366628 0.22467384 0.36737156 -0.026327511 0.15053086
0.081451885 0.5250733 0.020812001 0.029008433 0.038162716 0.12978902 0.33317107 0.11028655
0.15542968 -0.49716505 0.22720751 0.2579304 0.13720812 0.15154691 -0.20462613 -0.47665918
0.76002246 -0.30307662 0.0821514 -0.85848004 -0.98310244 0.13643467 0.085601404 0.3565886
0.40984544 0.31684667 0.113885954 -0.11017149 -0.09249898 -0.5659705 0.15220138 0.21431212
0.1104106 -0.08367749 0.14645141 -0.51548874 0.35801718 0.2362949 0.11898044 -0.7490996
0.17511791 -0.14007346 0.10365759 0.25232118 -0.68150026 0.031736407 -0.30265132 0.21371084
0.57087094 0.17367302 0.26445723 0.30599368 0.65305954 0.24084996 -1.1038766 0.29704893
-0.37345958 -0.69929904 0.241604 0.40919122 0.28693497 0.6247131 0.17632926 0.30226493
0.20666033 0.22663137 -0.0033086082 -0.02563307 0.07963145 0.26638117 0.35489795 0.13633433
0.25709233 -0.7871711 0.21272045 0.21223031 0.13422503 0.057649966 -0.15926415 -0.45905805
0.8045839 -0.21731254 0.15693907 -1.1542726 -1.056572 0.11168072 0.09910545 0.41282034
0.4102202 0.631799 0.18213065 -0.30663854 -0.2160154 -0.7612847 0.048563994 0.20187251
-0.012033827 -0.26114056 0.068843074 -0.23049033 0.2084973 0.27164096 0.18107547 -1.0115409
0.118421055 0.14169343 -0.009580422 0.41400933 -0.84057206 -0.029944748 -0.38610157 0.25874126
0.25904155 0.3982282 0.6057828 -0.27262583 0.31528315 0.09298682 0.727624 0.47305548
0.20921601 -0.13322069 -0.18456554 0.61857796 0.5511823 0.5462681 -0.14525612 0.40060166
-0.022324327 0.4362359 0.13010742 -0.37119007 0.11792532 0.56343246 -0.15600994 0.1031038
0.35062572 -0.026674869 0.0348776 -0.5211564 0.21875985 -0.5655326 -0.06498475 -0.63784426
0.49480444 0.30758148 0.40649286 -0.066046655 -0.30362725 0.21267977 0.12429814 0.42655095
0.59732234 0.42885783 0.09364424 0.21666889 0.077198535 -0.6326823 0.46421605 0.651259
0.07052165 -0.6777202 0.42065647 0.07443668 0.7058239 -0.08379075 -0.24169284 -1.0026542
0.6768046 -0.09317697 -0.023300404 -0.17656198 -0.004916975 -0.15698865 -0.16141264 0.18843743
00000000: 0c32 333f f993 e8bc 6c30 5d3e 73cf 9c3e
00000010: 605b 253f 45f4 d93d f4b1 8dbf 7adf 9f3e
00000020: 6c4d 68be d211 2fbf 229c 203e 9552 9a3e
00000030: f390 9f3e d942 123f 1ae6 1d3d 1bac bebc
00000040: 37db 153c c314 443e a4aa 873c 4899 063e
00000050: 9275 453d eae5 a93e 22e9 9d3e 3bed ba3e
00000060: 0fb4 d63c 5369 14bf 4b8b f93d 87da cf3d
00000070: d200 c03d 0c83 f1bc c841 0ebc b35b 80be
00000080: a404 3f3f b713 06be b8d5 9d3e d218 61bf
00000090: 55bb 14bf df18 803d 309d 353d bd28 c83e
000000a0: fe85 6c3e d953 dd3e 7459 053e e2cd 27be
000000b0: becf 6fbe ef76 1dbf 2d8f b53c de0a 363c
000000c0: d528 36be 324a 22be 71f0 ec3d 4e82 4abe
000000d0: 0a68 c83b 8d19 5d3e cb95 a63e 9ba6 5ebf
000000e0: 788e 3c3d 2f4f e43d 4b0e 343e 14d5 613e
000000f0: 9916 48bf 6ca0 b3bd 9cbe c3be d2ce 313e
00000100: 1518 033f 7b91 573e b305 893e 5b0c 323e
00000110: 7f44 163f 57b6 833e 2ee4 75bf 12d9 8c3e
00000120: c16a abbe e2c5 01bf ffdd d73d 115f ac3e
00000130: e610 663e 2018 bc3e cbac d7bc c324 1a3e
00000140: 3fd0 a63d 346b 063f ee7d aa3c 18a3 ed3c
00000150: 8250 1c3d 6ae7 043e 6695 aa3e eadd e13d
00000160: f528 1f3e 6b8c febe 16a9 683e 740f 843e
00000170: 4980 0c3e 1d2f 1b3e 8389 51be ac0c f4be
00000180: d590 423f dc2c 9bbe fe3e a83d 59c5 5bbf
00000190: 9aac 7bbf 88b5 0b3e ca4f af3d c892 b63e
000001a0: 43d7 d13e ba39 a23e 0a3d e93d 97a1 e1bd
000001b0: 1b70 bdbd 71e3 10bf aeda 1b3e a374 5b3e
000001c0: f41e e23d 1b5f abbd 5cf7 153e 12f7 03bf
000001d0: 074e b73e 4af7 713e 04ac f33d fec4 3fbf
000001e0: 1c52 333e 6b6f 0fbe 6e4a d43d 3e30 813e
000001f0: cd76 2ebf 09fe 013d 1df5 9abe 04d7 5a3e
00000200: 9924 123f 57d7 313e f066 873e 34ab 9c3e
00000210: e92e 273f 5fa1 763e d44b 8dbf cc16 983e
00000220: 1836 bfbe 4305 33bf 0a67 773e 8381 d13e
00000230: 24e9 923e 33ed 1f3f a88f 343e 78c2 9a3e
00000240: c49e 533e 0e12 683e 3cd5 58bb 72fc d1bc
00000250: d015 a33d 1d63 883e 2fb5 b53e 3a9b 0b3e
00000260: 9ba1 833e 0c84 49bf 64d3 593e e752 593e
00000270: 4972 093e 5f22 6c3d 2416 23be a809 ebbe
00000280: 36f9 4d3f 2e87 5ebe a3b4 203e 34bf 93bf
00000290: c03d 87bf dcb8 e43d ccf7 ca3d 305d d33e
000002a0: 6208 d23e 94bd 213f 7580 3a3e baff 9cbe
000002b0: 2433 5dbe 8ee3 42bf 0aeb 463d abb7 4e3e
000002c0: 8729 45bc 37b4 85be 99fd 8c3d a805 6cbe
000002d0: 5180 553e 8614 8b3e d96b 393e 2c7a 81bf
000002e0: bd86 f23d 1518 113e 34f7 1cbc 08f9 d33e
000002f0: bb2f 57bf b04e f5bc 1baf c5be bc79 843e
00000300: 18a1 843e 91e4 cb3e 9514 1b3f 9d95 8bbe
00000310: cb6c a13e e06f be3d 9145 3a3f 5434 f23e
00000320: b93c 563e 016b 08be c0fe 3cbe 205b 1e3f
00000330: 491a 0d3f 3ad8 0b3f 05be 14be a91b cd3e
00000340: 82e1 b6bc 505a df3e e13a 053e a00c bebe
00000350: d582 f13d 1c3d 103f 12c1 1fbe 1628 d33d
00000360: 3785 b33e 4185 dabc d0db 0e3d 816a 05bf
00000370: 9502 603e bfc6 10bf b916 85bd c349 23bf
00000380: 0257 fd3e 527b 9d3e d51f d03e 7843 87bd
00000390: 0875 9bbe bac8 593e 0690 fe3d e364 da3e
000003a0: 1eea 183f 4193 db3e 8dc8 bf3d 73de 5d3e
000003b0: 441a 9e3d 78f7 21bf baad ed3e e9b8 263f
000003c0: a86d 903d 127f 2dbf 4960 d73e 4272 983d
000003d0: e0b0 343f 7c9a abbd 547e 77be f956 80bf
000003e0: 1143 2d3f 91d3 bebd 7de0 bebc aacc 34be
000003f0: 931e a1bb a2c1 20be 5b49 25be bef5 403e

fc2.bias f4 [64]
0.10645652 -0.10018766 -0.032588687 0.37989014 0.37441388 0.039314702 0.3260887 0.2434198
-0.02114692 0.3761252 0.22096276 -0.08994514 0.42528534 0.13022467 0.43597153 0.56490064
0.09590115 -0.05223577 0.044992395 0.32462293 0.2924198 -0.06611037 0.02082939 0.44109765
0.16567156 -0.13085276 0.1123098 0.018737417 0.91518015 0.0014727135 0.09641361 0.21259576
0.16970694 0.27758393 0.1222618 -0.121737495 -0.13132823 0.4468149 -0.07059904 0.3094138
0.099398166 0.22980613 -0.055232618 0.47344926 -0.012823576 0.09789258 -0.09776135 0.33640993
0.12845916 -0.08119742 0.666586 0.16113323 0.16503319 0.094586864 -0.04162472 0.052287184
-0.034391537 0.007518031 0.32925943 0.21517693 0.16542456 0.13630244 0.42643833 0.16607364
00000000: e005 da3d 302f cdbd b77b 05bd f680 c23e
00000010: 2db3 bf3e 7408 213d 19f5 a63e 0a43 793e
00000020: 4e3c adbc 7b93 c03e 1044 623e 2835 b8bd
00000030: 00bf d93e 9e59 053e a937 df3e 549d 103f
00000040: d267 c43d 2df5 55bd f249 383d fa34 a63e
00000050: 0cb8 953e e064 87bd 66a2 aa3c 8dd7 e13e
00000060: cea5 293e 44fe 05be ae02 e63d 367f 993c
00000070: 3f49 6a3f 1108 c13a 8074 c53d b4b2 593e
00000080: a8c7 2d3e 7b1f 8e3e 6564 fa3d 8251 f9bd
00000090: e87a 06be ecc4 e43e 3b96 90bd 7c6b 9e3e
000000a0: 4491 cb3d 4c52 6b3e 993b 62bd f167 f23e
000000b0: fa19 52bc e87b c83d 1a37 c8bd ec3d ac3e
000000c0: cc8a 033e d54a a6bd 61a5 2a3f 1c00 253e
000000d0: 76fe 283e c2b6 c13d af7e 2abd 162b 563d
000000e0: 24de 0cbd d159 f63b b194 a83e 5757 5c3e
000000f0: 0e65 293e de92 0b3e 2056 da3e 350f 2a3e

fc3.weight f4 [4, 64]
-0.54372233 -0.36589807 -0.53200734 -0.5513735 -0.36208686 -0.2596163 1.302978 1.2309663
0.034331016 -0.43316075 -0.45696762 -0.5922035 -0.3588503 -0.5656728 1.2110478 1.1529838
-0.4552324 0.028700057 -0.45481667 -0.24252346 -0.39659595 0.062825374 -0.24049534 0.51640695
-0.28901455 0.10071702 -0.4028199 -0.6340321 -1.0808489 -0.29751378 -0.3163736 1.5639722
-0.29210198 -0.34952205 -0.2545882 -0.10754472 -0.09271062 -0.31390867 -0.27685145 -0.30524394
-0.42632034 -0.12945034 -0.19534402 -0.36621737 -0.22468089 -0.032703206 0.06990377 -0.60559016
-0.5352213 1.2033279 -1.6416279 1.1218188 -0.42998075 0.855787 0.048072435 1.6012938
-0.60252005 0.009937086 1.1853857 -0.32649207 -0.53254527 -0.46932682 1.2169917 -0.5885752
-0.058437265 -0.3999258 -0.31193206 -0.7928026 -0.4813132 -0.22224386 1.0981301 0.95482904
0.24417157 -0.5796074 -0.70393616 -0.8920982 0.3105095 -0.4259311 1.2637264 1.0946983
-0.54054356 0.09498224 -0.23781437 -0.046541017 -0.40407938 0.12890287 -0.2387792 0.7826869
-0.33429232 0.070061505 -0.16131206 -0.4648384 -0.9467896 -0.2849148 -0.62186676 1.792615
-0.6684893 -0.63293135 -0.14841451 0.12477073 -0.924876 -0.27333587 -0.28453252 -0.16693445
-0.49498338 -0.35063004 -0.6966932 0.18121576 -1.243691 0.010687441 0.13380335 -0.6783128
-0.43235683 1.0135256 -1.4670608 1.2461051 -0.512024 1.0213158 -0.014016869 1.3679739
-1.0478784 0.07887637 1.0089664 -0.52395093 -0.42318162 -0.092568345 1.3216169 -0.36750045
-0.51649207 -0.6729235 -0.5312482 -0.37185875 -0.22300279 -0.29718098 1.6717552 2.0460918
0.7548326 -0.2927401 -0.42702594 -0.45183122 -1.0351425 -0.3870734 0.9191851 1.2414708
-0.378145 -0.06975084 -0.587122 -0.3082722 -0.29752278 0.052878518 -0.5956234 1.5103264
-0.27051947 0.10866578 -0.4664527 -0.47639146 -1.6726182 -0.17937839 -0.6564761 1.5111492
-1.070452 0.08183099 -0.3367035 -0.05058533 -0.28395894 -0.2853355 -0.44168603 -0.5058322
-0.32316253 -1.2727362 -0.64132386 -0.35737625 -0.2119852 -0.0031429976 -0.08445196 -0.9711037
-0.25776616 -1.1617724 -1.5552566 0.10994893 -0.63685656 -0.5864572 0.032136388 1.620671
-0.5402776 -0.10912622 1.1580979 -0.31786996 -0.19529308 -0.28834003 1.0534173 -0.44733328
-0.3081258 -0.23407227 -0.37029043 -0.60478127 -0.42632583 -0.3458133 1.6116741 1.356801
0.31657547 -0.48685715 -0.39081314 -0.35660037 -0.600549 -0.55735624 1.4756049 1.1641268
-0.5104393 0.09673751 -0.3579359 -0.4051767 -0.42099065 -0.04456931 -0.42232013 0.49827996
-0.32080016 0.07752738 -0.52437925 -0.5309177 -0.78353316 -0.3672609 -0.28580326 1.3519781
-0.0807553 -0.15864906 -0.476528 -0.060475916 -0.23945546 -0.38115093 -0.46495527 -0.25381315
-0.41340154 -0.33136582 -0.3259943 -0.72478586 0.43673307 -0.11884415 0.031991605 -0.59636897
-0.42994356 1.4800705 -1.6509763 1.0794113 -0.40057805 1.2322706 -0.105676904 1.759453
-0.23645875 -0.09303621 0.84991235 -0.3051647 -0.41137823 -0.5526803 1.1403284 -0.45520723
00000000: 6331 0bbf fe56 bbbe a231 08bf d026 0dbf
00000010: 7363 b9be 6dec 84be fcc7 a63f 4e90 9d3f
00000020: ae9e 0c3d 3fc7 ddbe a9f7 e9be a69a 17bf
00000030: 3abb b7be efcf 10bf 9d03 9b3f f994 933f
00000040: 3914 e9be 621c eb3c bbdd e8be 1258 78be
00000050: a00e cbbe 97aa 803d 6944 76be 3f33 043f
00000060: b7f9 93be ba44 ce3d 693e cebe ed4f 22bf
00000070: 4259 8abf ba53 98be b8fb a1be 3e30 c83f
00000080: 648e 95be 8ef4 b2be 6259 82be 6840 dcbd
00000090: 11df bdbd a3b8 a0be 79bf 8dbe ef48 9cbe
000000a0: a946 dabe a18e 04be 4308 48be d880 bbbe
000000b0: bf12 66be ccf3 05bd b529 8f3d f507 1bbf
000000c0: 4304 09bf a606 9a3f dd20 d2bf c297 8f3f
000000d0: 7026 dcbe db14 5b3f 9ae7 443d 32f7 cc3f
000000e0: c13e 1abf 29cf 223c b8ba 973f f829 a7be
000000f0: e354 08bf 9b4b f0be 62c6 9b3f ddac 16bf
00000100: ea5b 6fbd 13c3 ccbe 8fb5 9fbe 1cf5 4abf
00000110: af6e f6be e593 63be 878f 8c3f ad6f 743f
00000120: 1d08 7a3e 2761 14bf 2935 34bf 8c60 64bf
00000130: 1afb 9e3e a413 dabe c9c1 a13f 131f 8c3f
00000140: 1061 0abf 0c86 c23d 9c85 73be cba1 3ebd
00000150: 7ee3 cebe 1dff 033e 8982 74be 2b5e 483f
00000160: 5d28 abbe 687c 8f3d fd2e 25be 4cff edbe
00000170: ce60 72bf 5ae0 91be a932 1fbf 6974 e53f
00000180: 1d22 2bbf ca07 22bf f9f9 17be cc87 ff3d
00000190: acc4 6cbf aef2 8bbe 3fae 91be ddf0 2abe
000001a0: 766e fdbe c885 b3be 7c5a 32bf a090 393e
000001b0: 4431 9fbf 601a 2f3c bf03 093e e8a5 2dbf
000001c0: e05d ddbe 35bb 813f a6c8 bbbf 5f80 9f3f
000001d0: 0114 03bf 7aba 823f 02a7 65bc c519 af3f
000001e0: e120 86bf ef89 a13d d025 813f a621 06bf
000001f0: 43ab d8be 7994 bdbd be2a a93f 0529 bcbe
00000200: d338 04bf b744 2cbf e2ff 07bf 4564 bebe
00000210: d85a 64be 1b28 98be 13fc d53f 2bf3 0240
00000220: b63c 413f 08e2 95be 25a3 dabe 6c56 e7be
00000230: 8d7f 84bf 7c2e c6be b74f 6b3f 84e8 9e3f
00000240: 399c c1be 87d9 8ebd a14d 16bf dbd5 9dbe
00000250: e854 98be 2597 583d c67a 18bf 6052 c13f
00000260: 8781 8abe 2a8c de3d e3d2 eebe 95e9 f3be
00000270: 5a18 d6bf f8ae 37be d10e 28bf 566d c13f
00000280: 9204 89bf 0297 a73d 6764 acbe 9032 4fbd
00000290: 1163 91be 7f17 92be ac24 e2be 387e 01bf
000002a0: 8f75 a5be 05e9 a2bf cd2d 24bf 05fa b6be
000002b0: a612 59be c0fa 4dbb 26f5 acbd 419a 78bf
000002c0: edf9 83be f5b4 94bf a612 c7bf e82c e13d
000002d0: 0809 23bf 0f22 16bf 72a1 033d 2672 cf3f
000002e0: a24f 0abf 917d dfbd 8d3c 943f dabf a2be
000002f0: e9fa 47be 4ea1 93be 61d6 863f de08 e5be
00000300: aac2 9dbe a4b0 6fbe b596 bdbe f2d2 1abf
00000310: 6147 dabe 710e b1be 564b ce3f a8ab ad3f
00000320: 2e16 a23e 5745 f9be a918 c8be 5394 b6be
00000330: 94bd 19bf e6ae 0ebf 9fe0 bc3f 1b02 953f
00000340: 26ac 02bf 511e c63d 6043 b7be 5273 cfbe
00000350: 168c d7be 4f8e 36bd 583a d8be 8d1e ff3e
00000360: eb3f a4be adc6 9e3d b83d 06bf 39ea 07bf
00000370: a195 48bf 9f09 bcbe ce54 92be 9e0d ad3f
00000380: 0963 a5bd e674 22be 7afb f3be 98b5 77bd
00000390: d033 75be 3726 c3be 9e0e eebe ccf3 81be
000003a0: 5ea9 d3be c8a8 a9be bae8 a6be 918b 39bf
000003b0: 7a9b df3e 9064 f3bd a109 033d a3ab 18bf
000003c0: 9021 dcbe f372 bd3f 3153 d3bf 262a 8a3f
000003d0: 9118 cdbe 0bbb 9d3f 226d d8bd c235 e13f
000003e0: 3e22 72be c589 bebd db93 593f 8c3e 9cbe
000003f0: 2ba0 d2be 757c 0dbf 48f6 913f ec10 e9be

fc3.bias f4 [4]
-0.09780873 0.16951348 0.022299329 -0.65448576
00000000: f24f c8bd f194 2d3e 15ad b63c 618c 27bf
