p3_collab-compet/assets/checkpoint_actor_0.pth (torch_old, 80889 bytes, 6 tensors)

fc1.weight f4 [128, 24]
0.4530376 -0.4185051 0.02628181 0.04638791 0.55738133 0.22317292 0.013048692 -0.037813567
0.50596917 -0.05411511 -0.021322709 0.6125782 0.03440141 0.25542286 -0.1490122 0.6163437
0.31768668 0.37868008 -0.10293105 0.73222303 -0.63574934 0.14946337 -0.035371646 0.7456347
0.06446983 0.5830962 -0.123993166 0.17694493 -0.5322651 -0.5512209 -0.04143676 0.16550829
-0.027418809 0.42003807 -0.17359382 0.32007277 0.017909033 -0.51183605 -0.27475387 0.3142665
-0.07663685 0.027203925 0.18631747 -0.14083107 0.5594477 -0.21204276 0.052271426 -0.2461766
-0.18971975 0.8216818 0.085997686 0.00065399497 -0.21526384 0.19428955 0.043805994 -0.08327407
-0.17957115 0.69040525 0.0311663 -0.31452206 0.4508737 0.14030407 -0.033827048 -0.34287474
0.039882276 0.5640897 -0.09017512 -0.7223584 1.3156229 -0.084692225 -0.018426888 -0.6465389
0.21837382 -0.2819011 -0.008784707 0.54762197 -0.25156164 -0.70121443 -0.17349505 0.49918944
0.3484452 -0.37333238 -0.11223779 0.41429296 0.31810716 -0.26034716 -0.07912422 0.5754278
0.26287657 -0.3867661 -0.21847597 0.36316448 0.8146762 0.15035813 -0.20030099 0.43878776
0.2785777 -0.090248525 -0.08454541 -1.0415728 -0.057449006 0.14547999 -0.25149113 -1.1307902
0.17405863 -0.2553813 -0.03266182 0.12767684 0.22895968 0.011058876 -0.02105417 0.08435182
0.6165364 -0.35353568 0.16172102 -0.22507343 0.7261227 -1.8193738 0.1923438 -0.14933513
0.39222184 -0.9952993 -0.27635774 -0.072685726 0.61045676 -0.105832376 -0.35235944 0.042474918
0.2641785 -0.689514 -0.23484756 0.35987192 0.06946531 -0.373405 -0.1003885 0.3490451
0.27241737 -0.6281204 -0.055150233 0.45786223 -0.44715974 -0.42104533 -0.026457543 0.50141174
0.29640514 0.23318581 -0.09360826 0.077049926 -0.18309239 -0.10060455 -0.114842445 0.15308851
0.46176988 0.23415327 0.12902318 -0.12012308 -0.5125953 -0.063727535 0.24375474 -0.20200859
0.38166508 0.24971727 0.046061985 -0.06739707 -0.86067104 -0.24825512 0.03779848 -0.058267545
0.33014333 -0.34191853 0.04956904 -0.100894205 -0.17450652 0.6936217 0.028781932 -0.12377947
0.14225872 -0.48783815 0.08715058 -0.25423184 -0.37440366 0.74770695 0.0803273 -0.33807352
0.045882724 -0.616417 -0.06895462 -0.12770915 -0.35891 0.3242778 -0.13964683 -0.1644267
0.025266487 -0.36197063 -0.26217455 -0.5250549 -0.19779867 -0.7972806 -0.4261883 -0.45538166
0.13654858 -0.47526374 0.10221671 -0.12925975 0.25034964 -0.5672737 0.020621654 -0.27235675
0.26161996 -0.3630826 -0.1465538 0.28000477 0.51753485 -0.2116226 -0.2204147 0.3410026
-0.15339348 -0.9262749 -0.09530183 -0.56934357 0.17914678 -0.31151846 -0.07200233 -0.44345006
-0.18550606 -0.94977415 0.15274484 -0.4423898 -0.14246769 -0.49868056 0.18658595 -0.56608367
-0.044325754 -0.8049233 -0.024553265 -0.44596535 -0.10242835 -0.52782035 -0.030846955 -0.3554014
-0.07495908 -0.07603882 -0.035642907 -0.5128551 -0.2041233 0.045725055 -0.094621494 -0.601982
-0.12055767 -0.27859685 -0.015598954 -0.5914579 -0.068492696 0.23735693 0.029969325 -0.5422532
00000000: 8bf4 e73e 4d46 d6be f34c d73c 4001 3e3d
00000010: 8bb0 0e3f 7187 643e 2eca 553c 66e2 1abd
00000020: 3287 013f cea7 5dbd f6ac aebc edd1 1c3f
00000030: 7ee8 0c3d c9c6 823e a796 18be b3c8 1d3f
00000040: d4a7 a23e 5be2 c13e 84cd d2bd f872 3b3f
00000050: 78c0 22bf ed0c 193e dce1 10bd eae1 3e3f
00000060: c208 843d cb45 153f 21f0 fdbd 0d31 353e
00000070: 8742 08bf d01c 0dbf 98b9 29bd 017b 293e
00000080: 699d e0bc 3b0f d73e 94c2 31be 94e0 a33e
00000090: f7b5 923c b007 03bf 8aac 8cbe 8ae7 a03e
000000a0: c8f3 9cbd c4da de3c 02ca 3e3e 0536 10be
000000b0: f737 0f3f bd21 59be 901a 563d b815 7cbe
000000c0: e545 42be bd59 523f 8e1f b03d dc70 2b3a
000000d0: 206e 5cbe d7f3 463e ea6d 333d 988b aabd
000000e0: 80e1 37be 66be 303f 7850 ff3c 0909 a1be
000000f0: ebd8 e63e dfab 0f3e 3b8e 0abd 478d afbe
00000100: 995b 233d 2f68 103f bcad b8bd 7bec 38bf
00000110: 5566 a83f 1e73 adbd fcf3 96bc 9383 25bf
00000120: 639d 5f3e 5755 90be bbed 0fbc f430 0c3f
00000130: b0cc 80be ca82 33bf b0a8 31be c295 ff3e
00000140: 6967 b23e 6c25 bfbe eddc e5bd 351e d43e
00000150: f1de a23e 394c 85be e10b a2bd 3c4f 133f
00000160: c297 863e 3506 c6be 2ab8 5fbe b2f0 b93e
00000170: 9f8e 503f 7bf7 193e b41b 4dbe caa8 e03e
00000180: bca1 8e3e 38d4 b8bd 2526 adbd 4252 85bf
00000190: a64f 6bbd b5f8 143e 72c3 80be bcbd 90bf
000001a0: 6d3c 323e 56c1 82be 67c8 05bd b8bd 023e
000001b0: 6874 6a3e 4a30 353c cb79 acbc a6c0 ac3d
000001c0: 54d5 1d3f a102 b5be 329a 253e a679 66be
000001d0: 2de3 393f 3ee1 e8bf c6f5 443e 4feb 18be
000001e0: 4dd1 c83e efcb 7ebf c37e 8dbe 41dc 94bd
000001f0: e546 1c3f a5be d8bd 7568 b4be 2efa 2d3d
00000200: 6842 873e fd83 30bf e17b 70be 2241 b83e
00000210: d443 8e3d f12e bfbe 7c98 cdbd 0ab6 b23e
00000220: 4a7a 8b3e 80cc 20bf 36e5 61bd eb6c ea3e
00000230: 1ff2 e4be 4193 d7be 7dbd d8bc 855c 003f
00000240: 6ac2 973e 43c8 6e3e b0b5 bfbd 5acc 9d3d
00000250: 927c 3bbe c209 cebd 8432 ebbd 3cc3 1c3e
00000260: 1a6d ec3e e0c5 6f3e a71e 043e 1703 f6bd
00000270: 7239 03bf 9583 82bd d89a 793e 57db 4ebe
00000280: 9b69 c33e e2b5 7f3e 7eab 3c3d 7a07 8abd
00000290: f054 5cbf 9736 7ebe 94d2 1a3d f3a9 6ebd
000002a0: 8c08 a93e f20f afbe e808 4b3d 9fa1 cebd
000002b0: d6b1 32be 3191 313f 16c8 eb3c 1780 fdbd
000002c0: 45ac 113e ecc5 f9be 017c b23d ad2a 82be
000002d0: d6b1 bfbe b969 3f3f a482 a43d f917 adbe
000002e0: 86ef 3b3d 81cd 1dbf 1438 8dbd 30c6 02be
000002f0: 0dc3 b7be bd07 a63e 94ff 0ebe 795f 28be
00000300: aafb ce3c 3754 b9be be3b 86be ff69 06bf
00000310: bc8b 4abe 951a 4cbf 5a35 dabe c927 e9be
00000320: 64d3 0b3e c555 f3be ff56 d13d ab5c 04be
00000330: d42d 803e d938 11bf beee a83c 5872 8bbe
00000340: 0df3 853e f6e5 b9be 3312 16be c95c 8f3e
00000350: 2a7d 043f 98b3 58be 64b4 61be e597 ae3e
00000360: 2e13 1dbe 5a20 6dbf 9b2d c3bd 80c0 11bf
00000370: 4172 373e 597f 9fbe f575 93bd e30b e3be
00000380: 4df5 3dbe 6624 73bf 2569 1c3e ea80 e2be
00000390: 0de3 11be 0f53 ffbe 6310 3f3e dcea 10bf
000003a0: ec8e 35bd 740f 4ebf ee23 c9bc 9255 e4be
000003b0: f4c5 d1bd 3c1f 07bf c1b2 fcbc 2cf7 b5be
000003c0: 2584 99bd 3eba 9bbd 4cfe 11bd 794a 03bf
000003d0: b305 51be 324a 3b3d eac8 c1bd 7e1b 1abf
000003e0: f1e6 f6bd 3fa4 8ebe c192 7fbc c969 17bf
000003f0: e645 8cbd b20d 733e 3b82 f53c 1bd1 0abf

fc1.bias f4 [128]
-0.07039404 0.049148787 -0.36763135 -0.42667452 -0.06291999 -0.6105824 -0.09449749 -0.13275763
-0.043774962 -0.07777007 -0.24111636 -0.20092355 0.10949638 0.09983038 0.10740047 -0.0924018
-0.021552252 -0.16817169 -0.42676997 0.1694157 0.006251549 -0.34937754 -0.34194165 -0.14605057
-0.4969778 -0.36654025 -0.434425 -0.22059804 -0.11581098 0.0030075854 -0.15898836 0.1132123
0.011485931 -0.31782618 -0.380087 0.035064172 -0.26254353 -0.069668464 -0.4533281 -0.23022853
-0.2742548 -0.2453055 -0.3461995 -0.34445843 -0.49816757 -0.12580025 0.2344834 0.05537481
-0.0747715 -0.25765243 -0.5689669 -0.04075417 0.0011387798 -0.09947338 0.17108391 -0.3575897
0.24723178 -0.122071885 -0.17644908 0.14918809 -0.23359412 -0.07487182 0.21238594 0.09434747
-0.00658748 -0.4101896 -0.13105497 0.24503796 -0.051766474 0.091884464 0.1484343 -0.054569807
-0.1243683 -0.38015413 -0.28141645 -0.10042867 -0.21483076 -0.5917022 -0.23534532 0.27642238
-0.09821072 -0.14170656 -0.047199693 -0.5402703 -0.080472715 -0.20897613 -0.26295617 -0.3601748
-0.02023355 -0.37800318 -0.07305477 0.05601932 0.07420159 -0.1263138 -0.29949382 -0.051095985
-0.033857085 -0.030288588 0.16197379 -0.18971752 -0.34201434 -0.4219755 -0.00311287 -0.4127304
-0.44453835 0.08605771 -0.11143409 -0.33978063 -0.14266434 0.28046674 -0.09623357 -0.33463427
-0.31831273 0.0707216 -0.15806164 -0.10623116 -0.25084049 -0.022734018 -0.4539176 -0.24697171
0.24597007 0.06772926 0.30696592 0.38093755 -0.18445317 -0.38380536 -0.33479485 -0.16530496
00000000: c02a 90bd 3d50 493d 2d3a bcbe 1575 dabe
00000010: 32dc 80bd 214f 1cbf e687 c1bd 9ef1 07be
00000020: 604d 33bd ea45 9fbd 35e7 76be e7be 4dbe
00000030: a33f e03d df73 cc3d c7f4 db3d 283d bdbd
00000040: 598e b0bc 3335 2cbe 9881 dabe 4f7b 2d3e
00000050: cbd9 cc3b 9de1 b2be fa12 afbe 488e 15be
00000060: e073 febe 2aab bbbe f46c debe 74e4 61be
00000070: 4f2e edbd e91a 453b d8cd 22be dadb e73d
00000080: 7d2f 3c3c 1dba a2be c39a c2be 739f 0f3d
00000090: 1b6c 86be 57ae 8ebd 9f1a e8be 07c1 6bbe
000000a0: 206b 8cbe 5d31 7bbe 1041 b1be db5c b0be
000000b0: d20f ffbe c8d1 00be 6b1c 703e b2d0 623d
000000c0: cd21 99bd 05eb 83be d1a7 11bf d8ed 26bd
000000d0: 1c43 953a b3b8 cbbd 9f30 2f3e ff15 b7be
000000e0: 542a 7d3e d300 fabd 11af 34be c3c4 183e
000000f0: 4c33 6fbe 6656 99bd b37b 593e 3f39 c13d
00000100: cadb d7bb 5f04 d2be 4633 06be 3beb 7a3e
00000110: 1509 54bd ec2d bc3d 29ff 173e 9784 5fbd
00000120: cfb4 febd 90a3 c2be d115 90be 8cad cdbd
00000130: 98fc 5bbe cc79 17bf 5dfe 70be 3c87 8d3e
00000140: b422 c9bd 861b 11be 7754 41bd 284f 0abf
00000150: e1ce a4bd d7fd 55be 31a2 86be d568 b8be
00000160: d4c0 a5bc a289 c1be bd9d 95bd 8474 653d
00000170: 01f7 973d 6858 01be 4157 99be 064a 51bd
00000180: baad 0abd c61f f8bc 75dc 253e 4f45 42be
00000190: 811c afbe 2c0d d8be 4b01 4cbb 6651 d3be
000001a0: 889a e3be 063f b03d 8e37 e4bd baf7 adbe
000001b0: 9a16 12be 5699 8f3e 1b16 c5bd 2f55 abbe
000001c0: e3f9 a2be 7cd6 903d e9da 21be b98f d9bd
000001d0: 2a6e 80be b13c babc e367 e8be 27e6 7cbe
000001e0: 94df 7b3e a3b5 8a3d a32a 9d3e 3f0a c33e
000001f0: 4be1 3cbe 2382 c4be 3b6a abbe b445 29be

fc2.weight f4 [128, 128]
0.29458737 -0.09398146 -0.13973601 0.42372438 -0.31252295 0.015888685 0.15288678 -0.24962488
0.24605736 0.09438937 0.5117394 -0.3055016 -0.27449828 0.28928104 0.031789824 -0.121790625
0.11886469 -0.095505625 0.2255076 -0.11783692 0.29484478 0.3827443 -0.3100248 0.2105194
-0.79628026 -0.21772087 0.5265767 0.6322617 -0.3298434 0.021732016 0.0329018 -0.20507193
-0.8174551 0.47810918 0.068789646 0.07790609 -0.07301363 -0.2757393 0.021111285 0.116369
-0.18244527 -0.76511574 -0.11767973 0.17681621 0.22873326 -0.68524134 0.5213408 0.1664588
-0.341114 0.51276016 -0.33067557 -0.34759066 0.34621787 -0.29819456 0.13528857 -0.49712172
0.016073072 0.22758058 -0.4428629 -0.40815118 -0.04783089 -0.35180834 0.19760147 0.041432645
-0.04914869 0.26783195 -0.007925533 -0.51547396 -0.6136292 -0.62495536 0.3362136 -0.8966505
0.1710349 0.321091 -0.21699876 -0.24167375 0.12169734 0.19198503 -0.47822443 -0.05932655
0.2996162 -0.34113845 0.13405319 -0.15044993 -0.08100566 -0.22857063 -0.34043136 0.757775
-0.5170277 -0.3343452 0.046179403 0.5227424 0.4379899 0.18299359 0.32522666 0.32020944
0.03902495 -0.26432067 -0.13810763 0.1660591 0.15772112 -0.039362207 0.23545845 -0.35046017
0.14733167 0.09672479 0.18015891 -1.1794504 0.47151282 0.1186233 -0.57256925 0.8305275
0.14321655 -0.13737054 0.06849827 0.33084354 -0.27715814 -0.29846913 -1.3080578 0.08751744
0.16530553 0.5416827 0.33288327 0.3160701 -0.16230768 0.39931238 -0.07259476 0.32746837
-1.0516557 0.026800718 0.15594517 -0.33924574 -0.11410377 -0.3820566 0.10875624 -0.17873423
0.24865158 0.022363394 0.084664874 -0.25740921 -0.5780574 0.34624273 -0.33267233 -0.0862224
-0.38114563 -0.6851038 0.16519853 -0.022912309 -0.08442513 0.10060866 0.08768632 -0.068532586
0.04370037 -0.25399378 -0.023722308 -0.15707555 -0.12784208 -0.014039449 -0.25496495 0.2987912
0.05548504 -0.042573404 -0.10363648 -0.03669516 0.22495453 -0.18636827 -0.4096144 0.029211434
0.6266301 0.6240386 0.4295218 -0.17984346 0.25811356 -0.924445 0.2796179 -0.087365314
0.12444205 -0.0959764 -0.22941358 -0.06525321 0.0812581 -0.32233593 0.014663927 0.065132804
0.426445 -0.184356 0.033052515 0.16640943 0.123133145 0.5173506 -0.009979914 0.610094
0.059120886 0.0907695 0.1778179 0.23858131 0.2146151 -0.13537401 0.10598198 -0.80768424
-0.06953223 0.106808245 -0.049509935 -0.2651486 0.27579865 -0.16112259 -0.26757553 0.18915762
0.06317399 -0.62016135 -0.10762852 -0.04866974 -0.18318683 -0.16292112 -0.12769677 -0.033009715
0.10275099 0.21180256 -0.032719843 -0.41715097 0.02940392 -0.028457956 -0.19980453 0.26831517
-0.21227695 0.41237774 -0.36255103 0.06942505 -0.62204695 0.30657032 -0.2786737 -0.036832973
-0.22773243 0.13138509 -0.75158006 0.09695714 0.006901153 0.4797082 0.2349542 -0.2873868
0.25451863 0.31746823 0.37019813 -0.18472616 -0.16418724 0.6564254 0.039482772 -0.2889895
0.14544946 0.55841386 0.41291365 0.310771 -0.4079559 -0.70616126 0.28559092 -0.5014182
00000000: 28d4 963e 5a79 c0bd f516 0fbe 67f2 d83e
00000010: 0203 a0be fd28 823c 5a8e 1c3e aa9d 7fbe
00000020: 76f6 7b3e 374f c13d 5a01 033f b56a 9cbe
00000030: 0a8b 8cbe a51c 943e 0c36 023d 5d6d f9bd
00000040: 556f f33d 7498 c3bd 77eb 663e 7c54 f1bd
00000050: e5f5 963e 10f7 c33e 92bb 9ebe 6692 573e
00000060: 06d9 4bbf 38f2 5ebe bbcd 063f e7db 213f
00000070: 3ce1 a8be 5707 b23c 0ac4 063d 60fe 51be
00000080: bd44 51bf baca f43e 96e1 8c3d 3a8d 9f3d
00000090: 2c88 95bd b42d 8dbe 93f1 ac3c df52 ee3d
000000a0: efd2 3abe a0de 43bf 1202 f1bd 4f0f 353e
000000b0: 0d39 6a3e fa6b 2fbf 9776 053f 2d74 2a3e
000000c0: 7fa6 aebe 4044 033f 4f4e a9be 67f7 b1be
000000d0: 7843 b13e f5ac 98be 1689 0a3e bd86 febe
000000e0: adab 833c e20a 693e edbe e2be 31f9 d0be
000000f0: 53ea 43bd 3920 b4be 0a58 4a3e 47b5 293d
00000100: 2350 49bd 4521 893e 18da 01bc 1af6 03bf
00000110: ce16 1dbf 13fd 1fbf 3024 ac3e e38a 65bf
00000120: c623 2f3e 0a66 a43e ec34 5ebe 5379 77be
00000130: 743c f93d b997 443e d5d9 f4be 6600 73bd
00000140: 4b67 993e b3a9 aebe 3d45 093e 8c0f 1abe
00000150: 4ce6 a5bd 6b0e 6abe 054d aebe 8bfd 413f
00000160: ed5b 04bf 4b2f abbe 9d26 3d3d 72d2 053f
00000170: 3640 e03e ac62 3b3e 1c84 a63e 7ef2 a33e
00000180: a0d8 1f3d 0a55 87be 166c 0dbe 660b 2a3e
00000190: a581 213e 443a 21bd 051c 713e 846f b3be
000001a0: 1dde 163e a617 c63d 947b 383e 3bf8 96bf
000001b0: 216a f13e c6f0 f23d e693 12bf 739d 543f
000001c0: 5ca7 123e ddaa 0cbe d248 8c3d 5364 a93e
000001d0: ace7 8dbe f2d0 98be 706e a7bf 583c b33d
000001e0: da45 293e b8ab 0a3f ad6f aa3e f1d3 a13e
000001f0: fc33 26be ac72 cc3e 90ac 94bd efa9 a73e
00000200: a79c 86bf 2e8d db3c 17b0 1f3e 9eb1 adbe
00000210: 3daf e9bd ec9c c3be 97bb de3d 1b06 37be
00000220: 859e 7e3e 7033 b73c c764 ad3d 24cb 83be
00000230: 92fb 13bf ba46 b13e 0754 aabe 5f95 b0bd
00000240: 8525 c3be f662 2fbf ce29 293e 98b2 bbbc
00000250: 15e7 acbd ea0b ce3d e394 b33d d05a 8cbd
00000260: 29ff 323d 790b 82be 4955 c2bc 6ad8 20be
00000270: 09e9 02be b805 66bc c48a 82be 29fb 983e
00000280: 4844 633d 7361 2ebd 5d3f d4bd aa4d 16bd
00000290: 7b5a 663e 53d7 3ebe fbb8 d1be d14c ef3c
000002a0: d56a 203f fec0 1f3f 48ea db3e e228 38be
000002b0: 7627 843e 6da8 6cbf 142a 8f3e 96ec b2bd
000002c0: 79db fe3d 468f c4bd 65eb 6abe 7aa3 85bd
000002d0: a66a a63d 3709 a5be f840 703c 5964 853d
000002e0: 0057 da3e d2c7 3cbe 1362 073d 3c67 2a3e
000002f0: 3b2d fc3d 1771 043f cb82 23bc 1f2f 1c3f
00000300: be28 723d 5ce5 b93d e515 363e a94e 743e
00000310: 10c4 5b3e 7c9f 0abe 150d d93d 65c4 4ebf
00000320: ea66 8ebd 48be da3d eeca 4abd 8fc1 87be
00000330: 7b35 8d3e 52fd 24be a9ff 88be 89b2 413e
00000340: 5d61 813d e5c2 1ebf 576c dcbd ec59 47bd
00000350: 5495 3bbe cbd4 26be f1c2 02be 3235 07bd
00000360: 1c6f d23d c5e2 583e 3e05 06bd d094 d5be
00000370: 7de0 f03c a920 e9bc 8f99 4cbe 9b60 893e
00000380: 215f 59be 2d23 d33e 4aa0 b9be b82e 8e3d
00000390: 783e 1fbf c9f6 9c3e 52ae 8ebe 2cde 16bd
000003a0: b132 69be d089 063e 8d67 40bf 7791 c63d
000003b0: 1123 e23b 509c f53e d597 703e 5d24 93be
000003c0: 4450 823e 328b a23e 9c8a bd3e db28 3dbe
000003d0: b320 28be 7f0b 283f b0b8 213d 6ff6 93be
000003e0: b4f0 143e 36f4 0e3f 6b69 d33e 601d 9f3e
000003f0: 99df d0be fcc6 34bf f938 923e f15c 00bf

fc2.bias f4 [128]
-0.07556021 -0.104944676 -0.49142867 -0.40758115 -0.16500911 -0.48224914 -0.15834329 -0.3946528
0.122541755 -0.40639937 0.0037280116 0.01069729 0.021213142 -0.20011684 -0.05189483 -0.12291563
-0.39615533 -0.4918754 0.2649156 0.07801992 -0.07641905 0.066564366 -0.181638 -0.2847409
-0.24713458 -0.3637657 -0.0020663189 0.13701624 -0.18418187 -0.1747672 0.13273956 -0.33153576
0.014478141 -0.34571165 -0.06146793 0.01888314 -0.61216104 -0.19099088 -0.12615567 0.024165554
-0.35303226 -0.24402982 -0.26595095 -0.5959475 -0.5130237 -0.124992624 -0.40821773 -0.1355311
-0.17978062 -0.3620459 -0.40374923 -0.29420254 -0.13595365 -0.48238146 -0.10736314 -0.029916858
-0.119305514 -0.102572665 0.0010751518 -0.27203304 -0.08434604 -0.17898574 0.005247974 -0.2624552
-0.33351466 -0.15582764 -0.31672734 -0.3380397 -0.0050767087 -0.07347885 -0.26053795 0.11789722
-0.47416046 -0.31451866 -0.011806715 0.05288305 -0.24148881 0.06589964 -0.123146065 -0.10374303
-0.14178582 0.06266158 -0.108272806 -0.0029051446 0.07102578 0.09092822 -0.5375006 -0.1265136
0.035471804 0.026097337 -0.22519657 -0.034446195 0.05139455 -0.110591814 -0.088357426 -0.027609043
0.32500002 -0.08763478 -0.31327268 -0.05925121 0.1251629 -0.21790533 -0.12291041 -0.17090929
-0.5069748 -0.1692695 -0.21662647 -0.14030653 -0.07178362 -0.16694124 -0.10867303 0.004670536
-0.23056404 -0.23929621 -0.16902626 -0.24602726 -0.20685539 -0.108293176 -0.16742016 -0.18591899
-0.3905109 -0.066144034 0.2886615 0.023694053 -0.3580467 -0.048867412 0.100400664 -0.36641547
00000000: 50bf 9abd 3ced d6bd 8a9c fbbe 7aae d0be
00000010: 26f8 28be 5ce9 f6be be24 22be ef0f cabe
00000020: 2cf7 fa3d 9413 d0be a851 743b b043 2f3c
00000030: 2fc7 ad3c 6eeb 4cbe ac8f 54bd 31bb fbbd
00000040: dfd4 cabe 18d7 fbbe 04a3 873e e8c8 9f3d
00000050: 9781 9cbd e652 883d 50ff 39be 8fc9 91be
00000060: d910 7dbe 7f3f babe 146b 07bb fc4d 0c3e
00000070: 2c9a 3cbe 2cf6 32be e1ec 073e 0ebf a9be
00000080: ba35 6d3c 1e01 b1be ccc5 7bbd d1b0 9a3c
00000090: 96b6 1cbf 1d93 43be f42e 01be d7f6 c53c
000000a0: a5c0 b4be f4e2 79be b92a 88be 0490 18bf
000000b0: 8555 03bf 22fc ffbd ea01 d1be aac8 0abe
000000c0: 6918 38be 155e b9be 38b8 cebe b7a1 96be
000000d0: 6f37 0bbe b4fa f6be 35e1 dbbd 3314 f5bc
000000e0: 7356 f4bd 9e11 d2bd 1cec 8c3a ea47 8bbe
000000f0: 9ebd acbd 0a48 37be 32f7 ab3b 8760 86be
00000100: 6fc2 aabe 4891 1fbe 162a a2be 8a13 adbe
00000110: 855a a6bb 147c 96bd 3b65 85be 1974 f13d
00000120: 29c5 f2be 9708 a1be f470 41bc e69b 583d
00000130: d848 77be 64f6 863d 0134 fcbd 3a77 d4bd
00000140: 4d30 11be b754 803d 22be ddbd 3d64 3ebb
00000150: f775 913d 9338 ba3d a499 09bf c88c 01be
00000160: e24a 113d 15ca d53c ee99 66be 7417 0dbd
00000170: 1783 523d f67d e2bd bdf4 b4bd 5c2c e2bc
00000180: 6766 a63e dd79 b3bd 4765 a0be 66b1 72bd
00000190: b42a 003e 9322 5fbe 74b8 fbbd d802 2fbe
000001a0: 1ac9 01bf fc54 2dbe 54d3 5dbe 84ac 0fbe
000001b0: 4a03 93bd a5f2 2abe f78f debd 4c0b 993b
000001c0: fb18 6cbe 110a 75be 3815 2dbe 92ee 7bbe
000001d0: e6d1 53be d0c8 ddbd 3170 2bbe 8c61 3ebe
000001e0: 0bf1 c7be 8676 87bd 71cb 933e 081a c23c
000001f0: e651 b7be 3229 48bd dd9e cd3d cf9a bbbe

fc3.weight f4 [2, 128]
-0.3164063 0.081314504 -0.6201216 -0.4845981 0.5315217 -0.27903366 -0.40283543 -0.89652526
1.014025 -1.1715101 0.10377109 0.3347821 0.6607327 -0.71249753 -0.15918696 0.2947247
0.8208174 -0.5909933 0.6087135 0.736271 0.4941626 -1.207012 0.7728486 0.60175914
-0.009810527 -0.68730444 -0.28040096 0.3581335 -0.09144193 -1.2170671 -0.27547395 0.28531164
0.19214986 -0.045768507 0.7582573 0.13648391 -0.6496236 0.54310316 0.042663183 -0.9774406
-0.3683516 -0.11715031 -0.41002673 -0.99101907 0.15127489 -0.3084961 -0.47983032 -0.49249598
1.4953092 0.43946216 -0.40859237 -1.0710942 -0.019628467 0.38856348 0.04748807 0.03765001
0.13728172 0.0045453385 0.26661885 0.10285811 -0.14539354 -0.54750156 -0.14089464 -0.16140008
-0.10027579 0.4878333 0.49075508 0.3279461 0.35649723 -0.009705407 -0.9043994 0.2530976
-1.1155385 0.17190996 -1.1303378 0.2653997 0.56062055 0.999161 -0.4053703 0.696896
-0.2065732 -0.11707878 0.09430025 0.054572593 -0.2167933 0.12581684 0.22188485 -0.16955577
-0.12446981 0.21698177 0.6689771 -0.27582195 -0.02620233 0.2433325 0.47298625 -0.5168143
0.6019574 0.5789312 0.13907833 0.45482507 0.06683408 0.04076007 -0.19333798 -0.20433138
-0.8839175 0.07378188 0.032172292 0.33108687 -0.112073325 -0.22019644 0.023888987 -0.40379545
0.26143062 0.55197245 0.21681856 0.2678274 -0.32979423 -0.23218672 -0.30421653 0.24975856
0.7492678 -0.96910894 0.7465602 0.011029084 -0.085160166 -0.4112619 -0.73742694 0.07291361
0.4438936 -0.18192638 0.26573637 0.050741687 -0.3142108 0.5106769 0.09057928 0.4184908
0.17946538 -0.28733984 -0.38957107 -0.1952339 0.12850428 0.09226639 -0.06764827 0.23047917
-0.31483838 0.85531795 0.20933577 0.45733967 -1.2885146 0.13541894 -0.08674177 -0.14395842
0.0956741 -0.27178103 0.38677153 -0.17926148 -0.15926617 0.26439503 0.71959484 -0.18008362
-0.0013668418 -0.38681835 -0.036295462 -0.40815088 -0.25628924 0.014421765 -0.48718548 -0.3515612
-0.20084918 -0.16123292 0.12890528 -0.35171378 0.3894262 -0.15675175 -0.16104256 1.036458
0.065834805 -0.2678719 0.2666208 -0.39584917 -0.073192336 -0.7154675 0.32199916 0.006929931
0.21917067 0.1875717 -0.29020327 0.50486976 -0.32871938 -0.17811312 -0.72779316 0.23724793
-0.2583495 0.21568647 0.06096835 -0.011901821 0.32037002 -0.45639193 0.004195058 -0.45537704
0.077730514 0.9048699 -0.16005763 0.65243214 -0.035674557 0.8508494 0.125988 0.17783636
0.25753805 0.3904634 0.14250053 -0.17106883 0.076053806 0.03858649 0.81282365 -0.2661209
-0.93308544 -0.25037748 -0.6294672 0.20787217 -0.36092442 0.53927785 0.15152128 0.022750096
-0.040868737 -0.047749944 -0.36825296 -0.41485208 -0.19315444 0.09102319 0.3718497 0.28032893
0.04432542 0.2758142 -0.38986212 -0.8502379 0.76632047 0.3519263 0.002878745 0.059327077
0.18215458 -0.020734278 0.0950558 -0.2726407 0.09936889 -0.3570148 -0.1489757 0.12875883
-0.13976337 -0.2280221 0.25314903 0.015480328 -0.31943113 0.32129145 0.60157466 -0.43173373
00000000: 0200 a2be 3888 a63d 4ac0 1ebf 3e1d f8be
00000010: ce11 083f 80dd 8ebe 7240 cebe ae82 65bf
00000020: 92cb 813f 0bf4 95bf f085 d43d 8f68 ab3e
00000030: c725 293f 3d66 36bf e801 23be 28e6 963e
00000040: 1721 523f 564b 17bf a6d4 1b3f 427c 3c3f
00000050: e102 fd3e 5f7f 9abf 68d9 453f e30c 1a3f
00000060: 55bc 20bc 2ff3 2fbf b790 8fbe 465d b73e
00000070: e845 bbbd dbc8 9bbf ec0a 8dbe 5e14 923e
00000080: efc2 443e c277 3bbd 271d 423f 70c2 0b3e
00000090: bb4d 26bf cf08 0b3f 97bf 2e3d 8c39 7abf
000000a0: 9598 bcbe 80ec efbd 06ef d1be 6db3 7dbf
000000b0: cee7 1a3e 33f3 9dbe 52ac f5be 6f28 fcbe
000000c0: 4b66 bf3f 2f01 e13e 0533 d1be 9d19 89bf
000000d0: e1cb a0bc cbf1 c63e da82 423d e636 1a3d
000000e0: 9493 0c3e 10f1 943b 4482 883e 46a7 d23d
000000f0: 0be2 14be 1029 0cbf af46 10be 1046 25be
00000100: 655d cdbd 49c5 f93e 4044 fb3e 8de8 a73e
00000110: ce86 b63e 6d03 1fbc b886 67bf 0296 813e
00000120: f7c9 8ebf 2a09 303e e9ae 90bf 78e2 873e
00000130: d484 0f3f 04c9 7f3f b28c cfbe c767 323f
00000140: ed87 53be 00c7 efbd 7d20 c13d 8387 5f3d
00000150: 10ff 5dbe 21d6 003e c835 633e 07a0 2dbe
00000160: 07ea febd 7830 5e3e 1542 2b3f 8938 8dbe
00000170: 45a6 d6bc 282c 793e 412b f23e f14d 04bf
00000180: e119 1a3f d634 143f 8d6a 0e3e d5de e83e
00000190: 4ee0 883d 08f4 263d 64fa 45be 3f3c 51be
000001a0: 6b48 62bf f41a 973d 18c7 033d 3884 a93e
000001b0: b386 e5bd 2d7b 61be d6b2 c33c 47be cebe
000001c0: 3cda 853e 114e 0d3f af05 5e3e ac20 893e
000001d0: cada a8be 5bc2 6dbe 45c2 9bbe b5c0 7f3e
000001e0: 04d0 3f3f 8617 78bf 921e 3f3f 55b3 343c
000001f0: 7468 aebd eb90 d2be 03c8 3cbf bb53 953d
00000200: 0646 e33e e94a 3abe 990e 883e 84d6 4f3d
00000210: 3de0 a0be b9bb 023f a181 b93d 6d44 d63e
00000220: c6c5 373e 351e 93be dc75 c7be 65eb 47be
00000230: a096 033e 29f6 bc3d 2d8b 8abd bb02 6c3e
00000240: 7f32 a1be 1ef6 5a3f 1e5c 563e 6d28 ea3e
00000250: 0cee a4bf 43ab 0a3e aba5 b1bd d669 13be
00000260: c8f0 c33d e226 8bbe eb06 c63e 5290 37be
00000270: ac16 23be c95e 873e 5e37 383f d767 38be
00000280: 9a27 b3ba 0e0d c6be 8daa 14bd 27f9 d0be
00000290: 5838 83be 4449 6c3c 6070 f9be d4ff b3be
000002a0: 68ab 4dbe 3e1a 25be bfff 033e d413 b4be
000002b0: df62 c73e 8883 20be 57e8 24be a8aa 843f
000002c0: 66d4 863d 8126 89be 8682 883e beac cabe
000002d0: dde5 95bd e128 37bf 13dd a43e 7a14 e33b
000002e0: 476e 603e cc12 403e 8695 94be 253f 013f
000002f0: e84d a8be 4963 36be a750 3abf 1ff1 723e
00000300: 6346 84be eadc 5c3e f3b9 793d dbff 42bc
00000310: 8a07 a43e 34ac e9be b276 893b 2e27 e9be
00000320: 2d31 9f3d 8ea5 673f 26e6 23be cb05 273f
00000330: 7c1f 12bd 44d1 593f 0003 013e bc1a 363e
00000340: 07dc 833e d2ea c73e a9eb 113e ab2c 2fbe
00000350: 19c2 9b3d de0c 1e3d 3615 503f 0041 88be
00000360: b0de 6ebf 7a31 80be c324 21bf 71dc 543e
00000370: 16cb b8be 1d0e 0a3f 6528 1b3e 695e ba3c
00000380: fa65 27bd 7295 43bd a78b bcbe 7e67 d4be
00000390: 47ca 45be 5e6a ba3d 1563 be3e 4687 8f3e
000003a0: 928e 353d 8537 8d3e 029c c7be 31a9 59bf
000003b0: 942d 443f af2f b43e 54a9 3c3b f300 733d
000003c0: bb86 3a3e efda a9bc 9eac c23d 9097 8bbe
000003d0: eb81 cb3d a5ca b6be 168d 18be 5bd9 033e
000003e0: 211e 0fbe a07e 69be c09c 813e 34a1 7d3c
000003f0: 7a8c a3be 5080 a43e cc00 1a3f 340c ddbe

fc3.bias f4 [2]
0.012230992 0.08614657
00000000: 8064 483c 9d6d b03d
