p3_collab-compet/assets/checkpoint_critic_1.pth (torch_old, 319492 bytes, 5 tensors)

fcs1.weight f4 [256, 48]
000000 2d e5 b3 3d 6f e9 d5 be ec 91 e4 3c 02 c6 cf 3d
       0.08783946 -0.41779658 0.027901612 0.10145189
000010 b9 dd 70 bd 0f b5 5f 3e 14 1c ab bc 08 92 e4 3d
       -0.0588052 0.21846412 -0.020887412 0.11160666
000020 20 0c 7f 3e c1 1d 72 be c9 10 a3 3c 2a 7b ef 3d
       0.24906969 -0.23644163 0.019905465 0.116934136
000030 57 cc 20 bc 83 92 91 bd ed 99 a8 bc a7 f1 4e 3e
       -0.009814343 -0.07108023 -0.02058121 0.2020937
000040 e8 23 05 3f cb 13 6f bd 44 77 cc bc ad f1 b0 3d
       0.52007914 -0.058368485 -0.024959214 0.08639846
000050 a7 38 7c be e5 b5 5b be c9 95 28 3d ad 71 2a 3e
       -0.24630986 -0.21456106 0.04115847 0.16644926
000060 81 75 15 be 33 8f a3 bd 96 ac 4a 3c 7d c8 8d 3d
       -0.14595605 -0.079862975 0.012370249 0.06923006
000070 90 8b 03 3d a5 27 87 3e ae 69 5a bd d3 22 fe 3c
       0.03211552 0.26397434 -0.05332344 0.031022465
000080 19 07 b2 bd 9d 7d 91 3e 9e 66 f3 bd f2 f4 1a bb
       -0.0869276 0.28416148 -0.11884807 -0.0023644534
000090 52 31 ab 3d cb 04 94 bd 20 83 ef bd 41 e3 c8 3d
       0.083590165 -0.07227477 -0.11694932 0.0980897
0000a0 93 96 8e bd 74 32 1f 3f b7 2d 56 3d 71 eb 2f bd
       -0.069623135 0.6218636 0.05228969 -0.042949144
0000b0 5b 32 83 3e 05 6e 71 be 1c 36 91 3d fa 5e e1 bd
       0.25624356 -0.23577125 0.07090399 -0.110044435
0000c0 6f cb a7 3e 82 bd a9 bd 2b 97 7b bd 82 d9 f8 bd
       0.32772395 -0.08288099 -0.061423462 -0.12150861
0000d0 ba d0 9c 3d 34 27 55 bd 9e 06 ac bc b0 ec fe bd
       0.07656999 -0.05203934 -0.02099925 -0.12447488
0000e0 74 81 7c 3e e6 1d 99 bd ae 74 93 3d 39 66 8a be
       0.24658757 -0.07476406 0.07199989 -0.27031115
0000f0 31 1a 1e 3e ea ee 6a bb bc 1d 9f 3d f2 24 8c be
       0.15439679 -0.003584797 0.07769343 -0.27371937
000100 9b 12 3f 3e 03 00 c3 bd 1a 3f 2f 3d 82 e9 7e 3c
       0.18659441 -0.095214866 0.042784788 0.015558602
000110 ab b2 f2 3d b5 f2 89 bd a1 bf a9 3d 6d 1d fe 3b
       0.118504845 -0.06735746 0.082885034 0.0077549727
000120 d7 e2 34 3e 33 06 80 3e 00 f1 06 bd ed 51 90 be
       0.17664658 0.2500473 -0.03294468 -0.28187504
000130 14 04 bd 3c 55 78 6a bb 11 3d 0e bd 1a 46 86 be
       0.023073234 -0.003577729 -0.034726206 -0.26225358
000140 da d8 89 3e fc 73 5e 3e 27 e8 96 3c 08 b1 f2 3d
       0.26923257 0.21723932 0.018421246 0.11850172
000150 21 eb 87 bd 84 2f 36 bc f8 2d e0 bc 52 59 e0 3d
       -0.06636644 -0.011119727 -0.02736567 0.109545365
000160 5e 2c 8a 3e f8 ef 6b 3e d4 dd 53 bd 8e 02 1d 3c
       0.26986974 0.2304076 -0.051725224 0.009583129
000170 e1 c4 bc bd 43 66 d0 bd ef 77 bf 3c 14 c9 77 bc
       -0.09217239 -0.10175755 0.023372618 -0.015123624
000180 6c 25 e5 3e 87 ca 5d 3f f9 12 40 3d c6 e2 84 3d
       0.44755113 0.8663716 0.046893094 0.06488566
000190 02 04 7b 3c f9 63 3f 3d f4 bd cc 3c 60 7a a0 3d
       0.01532078 0.0467262 0.02499292 0.07835841
0001a0 06 8b cf 3e 27 6f 4c 3f dc 1c 14 3d 14 c2 1e be
       0.40535754 0.79857105 0.036160335 -0.15503722
0001b0 06 3a 95 3d 98 30 c5 bd f2 18 51 bd 7a 92 07 be
       0.07286458 -0.09628409 -0.05104918 -0.1323947
0001c0 10 16 f3 3d ba f0 35 3f 1b 16 a8 3d 0a 15 be bd
       0.118694425 0.71070445 0.08207341 -0.09281357
0001d0 af 46 9e bd 27 de 6c be 85 96 b6 3d aa 10 88 bd
       -0.077283256 -0.2313162 0.08915428 -0.066438034
0001e0 26 ce 8e 3e 03 dd 24 3e 4f 9f e3 3c bc a8 af 3d
       0.27891654 0.16099934 0.027785925 0.085771054
0001f0 5f cf 44 bd e7 1e ec 3d 7b c5 73 3d b4 06 ca 3d
       -0.048049327 0.11529332 0.059514504 0.0986456
000200 81 23 7e 3e b8 e0 40 3e 03 c0 be bd bb 81 bd be
       0.24818231 0.18835723 -0.09313967 -0.3701304
000210 af 12 1a bd ca 7d 81 bd 53 a9 7d bd e3 6b ad be
       -0.037615474 -0.063228205 -0.06192906 -0.33871374
000220 c5 1b a2 3e 1c d3 62 3e b9 2d 15 3e c8 26 15 be
       0.3166181 0.22150844 0.14568223 -0.14565575
000230 01 47 87 3d 26 91 82 be 66 13 dc 3d be d2 52 be
       0.0660534 -0.25501364 0.107458875 -0.20588204
000240 6c 29 ea 3e 5f 84 18 bf f2 b9 62 3e 38 bd d7 3c
       0.45734727 -0.5957698 0.22141245 0.026335344
000250 2d d4 21 bd c0 e0 92 3c 1e e8 1d 3e 03 85 e6 bc
       -0.039508987 0.017929435 0.15420577 -0.028139597
000260 36 fd ae 3e a1 c6 07 bf 3e 6c 99 bd 81 b4 2a 3e
       0.3417756 -0.5303746 -0.07491349 0.1667042
000270 9b ca 85 bc cc 3c c1 be 20 5e 88 bd 65 e5 8d 3d
       -0.016331961 -0.37741697 -0.06658578 0.06928519
000280 f1 75 80 bd a5 65 e6 be a5 1f 23 bd 12 d7 be 3d
       -0.062724955 -0.44999424 -0.0398251 0.09318365
000290 59 1c 83 3d 3f bc ae bf e0 27 b9 ba d0 e5 8d 3d
       0.06401891 -1.3651198 -0.0014126264 0.06928599
0002a0 f6 56 89 3e 27 65 29 3f 02 b0 40 bd 69 2f 80 bd
       0.26824158 0.6616997 -0.047042854 -0.06259043
0002b0 15 dc 30 3d 67 62 5c 3d eb da 1c 3d 3f fc 28 bd
       0.043178637 0.05380478 0.038294714 -0.041256186
0002c0 7f c3 76 3e c2 46 fc 3e 28 2c d6 3d 3d 0b e5 bc
       0.24098013 0.49272734 0.10457641 -0.02795946
0002d0 53 29 05 3b 70 47 c3 be 3e 33 f1 3d f7 be b1 3a
       0.002031882 -0.3814044 0.11777352 0.001356094
0002e0 cc 80 b0 3e 3f d3 3a 3f 21 bc cb bc d4 45 8f 3e
       0.34473264 0.72978586 -0.02486998 0.27982962
0002f0 76 ad b8 bd 1b 2a a6 bf 76 0e f3 bb 02 27 92 3e
       -0.0901746 -1.29816 -0.0074174954 0.28545386
000300 8e 12 71 3e 75 6d 41 3f 42 3d 5c bc c4 2b 20 3d
       0.23542234 0.75557643 -0.013442339 0.03910424
000310 b1 c6 82 b8 1e 20 9f bd e4 a3 07 3d d3 29 0d bd
       -6.235892e-05 -0.07769798 0.033115283 -0.034463715
000320 6e 29 ec 3d 58 f8 57 3f 22 59 cc bc 8d 71 1e 3e
       0.115313396 0.8436332 -0.024944846 0.15473004
000330 9c c3 22 3e db ae 99 be 89 2b 94 3b e1 1c 29 3e
       0.15894932 -0.30016217 0.0045217914 0.16514923
000340 66 b4 bf bd 81 ab 4f 3f 46 97 01 bc 45 73 9a 3d
       -0.0936058 0.8112107 -0.007909602 0.07541517
000350 76 79 93 3e ae 81 12 bf 1f 4e f2 bb 32 cb 24 3e
       0.28803605 -0.57229125 -0.0073945667 0.16093138
000360 2a 1d c9 bd 52 01 4d bf af 52 02 bd c1 6f 20 3d
       -0.09820016 -0.8008014 -0.031817134 0.039169077
000370 d8 dc 2b bb 19 4f 23 be 4e 0d 11 bd 01 4d d5 3d
       -0.0026224162 -0.15948142 -0.03541308 0.10415078
000380 39 c0 b3 3b c3 9a 55 bf 4d 9c b8 3b d9 8e 40 be
       0.005485561 -0.8343927 0.005633867 -0.18804492
000390 33 da 94 bd 12 4e 63 be 93 0f b9 bb 69 8d 16 be
       -0.07268181 -0.2219775 -0.0056476085 -0.14702381
0003a0 8d 26 3f bd 4a be 6d bf 6c 98 c6 bd 43 de 4c 3d
       -0.046667624 -0.92868483 -0.09697041 0.050016653
0003b0 36 af 8f be d8 e7 11 bf 25 52 92 bd 20 c2 9d 3d
       -0.28063363 -0.5699439 -0.07144574 0.07703042
0003c0 5e 31 c0 3e d6 67 75 3e fb ef 92 bd 89 1d a9 be
       0.37537664 0.23965392 -0.07174679 -0.33030346
0003d0 05 5f 21 3e 07 a9 2f bf 3e df 56 bd a1 21 91 be
       0.15758903 -0.6861729 -0.052458994 -0.2834597
0003e0 9b 61 6a 3e cc ca 11 3d 73 f3 f5 3b f8 c8 93 be
       0.22888796 0.035593793 0.007505828 -0.28864264
0003f0 24 56 82 bd 55 e1 5a be f2 38 e6 bc 0f 47 82 be
       -0.06364086 -0.2137502 -0.028103326 -0.25444838

fcs1.bias f4 [256]
000000 92 c3 80 bd 15 c9 b2 be 83 82 47 bc b0 c3 3a be
       -0.06287302 -0.34919038 -0.0121771125 -0.18238711
000010 bc 3c db 3d 73 ba f0 3b e8 3b a1 be 87 84 b3 3d
       0.107049435 0.007346445 -0.31491017 0.08765512
000020 96 4b d7 3e b1 3b f4 bc a8 26 22 3e d1 e1 a4 3e
       0.42049855 -0.02981362 0.15835059 0.32203534
000030 e1 18 8e 3e de 6c 34 be 7b 24 86 be 80 0f 61 be
       0.27753356 -0.17619655 -0.26199707 -0.21978569
000040 e6 0a a6 be 0b 97 67 be 42 4f d2 be ef 25 a3 bc
       -0.3243019 -0.22616212 -0.41076094 -0.01991555
000050 aa a7 e3 be 84 eb a1 be 56 9f 05 bd fe 02 ee bd
       -0.44463855 -0.31624997 -0.032622658 -0.116216645
000060 38 f4 9a be 9b 05 2b bf eb 48 87 bd 4f 6f d5 be
       -0.3026445 -0.6680543 -0.06605705 -0.41686484
000070 1e 22 b5 be f5 0a c7 bd a9 69 d9 be 90 54 cf 3b
       -0.35377592 -0.09718887 -0.42463425 0.0063272193
000080 f2 70 2b 3f 93 ae d2 bd 10 10 98 bd f9 e5 e9 be
       0.66969216 -0.10287204 -0.07424939 -0.45683268
000090 4d 10 2e bf ef fb 67 be 68 13 af be e4 b4 a8 be
       -0.67993623 -0.22654699 -0.34194493 -0.3295051
0000a0 c6 e3 96 be 24 af c3 3e dd 71 61 be 8f af 3f be
       -0.29470652 0.3821956 -0.22016092 -0.18719314
0000b0 f5 5f d6 3d c3 0b e8 bd fa 58 3e be 5d 81 57 be
       0.10467521 -0.11330368 -0.1858863 -0.21045442
0000c0 5f da d4 bd 10 43 69 3e c0 47 c9 be 08 ab 96 be
       -0.103932135 0.22779489 -0.39312553 -0.2942736
0000d0 c0 c4 2c 3e c1 7a 04 bc 76 d7 bd be cb 5e af be
       0.16871929 -0.008085907 -0.37078446 -0.3425201
0000e0 46 36 85 bd 1b c0 99 be f6 44 ae be dd 18 3f be
       -0.065044925 -0.30029377 -0.34036988 -0.18661828
0000f0 aa f6 c8 3b 62 9d dc 3c 33 48 9c 3e 4d 12 ba be
       0.0061329203 0.026930515 0.30523834 -0.36342087
000100 cc 46 18 bf 96 4a fa be 47 3c bf be cc 7a cc 3d
       -0.5948303 -0.4888503 -0.37350675 0.09984359
000110 8a 58 91 be d8 0f 37 3e 61 cd 07 3e b6 ba 14 be
       -0.28387862 0.17877138 0.1326194 -0.1452435
000120 b3 ba 1f bf 63 aa de be 17 27 ed be c6 27 84 be
       -0.62394255 -0.4348937 -0.46318886 -0.25811595
000130 5f c1 7c be 1d 6d 13 bf af 76 20 bf be 22 b6 be
       -0.2468314 -0.5758837 -0.62681097 -0.3557338
000140 98 4a 65 bc 01 89 a0 be b0 9f 39 be 98 f4 a2 be
       -0.013994835 -0.31354526 -0.18127322 -0.31827235
000150 55 96 29 bd 51 65 23 bf c9 64 61 be 8f 8a 9a 3c
       -0.041403133 -0.6382647 -0.22011103 0.018864898
000160 d7 7a 96 be 62 3c 28 bd 82 d8 07 be 43 63 e7 be
       -0.29390594 -0.04107321 -0.13266185 -0.45192918
000170 53 5c 2f 3e ae 14 d1 bd 96 10 cd be 69 7b a2 be
       0.17125063 -0.102090225 -0.40051717 -0.3173478
000180 4f 13 6c be 58 41 06 3e e0 17 12 3e c5 12 c5 be
       -0.2305424 0.13110864 0.1426692 -0.38490883
000190 bd 0f ce be 04 21 23 bf f9 26 36 3d 30 7f 37 bd
       -0.40246382 -0.6372225 0.04447076 -0.04479903
0001a0 51 cc 18 be 20 0b eb bd 2a 30 80 be 51 8f d6 3e
       -0.1492169 -0.11476731 -0.25036746 0.41906217
0001b0 c2 92 08 3d 1c 78 04 bf af 39 b2 bc 6d 98 d1 bd
       0.033343084 -0.5174577 -0.021756021 -0.10234151
0001c0 07 e3 23 3e 4b 09 cd be 3c 34 84 be b0 bc 73 be
       0.16004573 -0.40046152 -0.25821102 -0.23802447
0001d0 b9 f0 ab be c8 7d 9b be 8d d0 5f be bc 0c 0e be
       -0.33582094 -0.303694 -0.218569 -0.13872045
0001e0 dc dc 84 be 7b 13 76 be 71 bc 22 bf 76 36 e0 be
       -0.25949752 -0.24030869 -0.6356879 -0.4379155
0001f0 53 f7 5c bd 22 9c 8e 3e 5d 02 ac be 7a 24 eb bc
       -0.053946804 0.27853495 -0.33595553 -0.028703917
000200 4a b9 96 3d 13 eb 9d be 22 e7 ce 3e 22 2b 8b be
       0.0735956 -0.3084341 0.40410715 -0.27181345
000210 60 5a 8a be 60 ee 68 be c6 fe d3 be 98 00 56 bd
       -0.27022076 -0.22747183 -0.41405314 -0.05224666
000220 de 08 ad be 64 a5 bd be 90 45 f7 3d b5 89 80 bd
       -0.33795828 -0.37040246 0.12073815 -0.062762655
000230 08 20 fb bd 0c d1 25 bf 61 75 ae be 77 b6 a8 be
       -0.12261969 -0.64772105 -0.34073928 -0.3295171
000240 dc 03 b5 bd c5 8f 8e be fd ea 41 be 5d 13 81 3d
       -0.08838627 -0.27844062 -0.18937297 0.063025214
000250 13 4c 06 be d1 5a 06 bf 4e 60 6c be c2 be e5 3d
       -0.13114958 -0.52482325 -0.23083612 0.11218025
000260 44 01 42 be 4e 4c 99 3e 90 34 8e be 9e ba 4a be
       -0.18945795 0.29941028 -0.27774477 -0.19797751
000270 34 3d 1a bc 6d 07 fe 3e fe 77 37 3c cf 62 38 be
       -0.009414006 0.4961504 0.011198042 -0.18006442
000280 22 4c 47 bd 29 78 f2 3c 11 39 2b 3b 5d ef 4d bf
       -0.04865659 0.029598312 0.0026126544 -0.80443364
000290 2e 06 f7 be 6c 48 73 be a8 38 5c be 2b 3d 87 3d
       -0.48246902 -0.23758096 -0.21505988 0.06603464
0002a0 38 6e 53 be 46 1c d9 be 85 31 0a bc 88 3d e6 bd
       -0.20647514 -0.42404383 -0.008434658 -0.11242205
0002b0 14 7b 9b 3e 9e cf cb be 71 59 cf bd 2d fe f3 be
       0.3036734 -0.39806837 -0.101244815 -0.47654858
0002c0 d3 73 9e be 9c e1 22 be 64 40 e2 bd a3 f1 2d be
       -0.30947742 -0.15906376 -0.11047438 -0.16986708
0002d0 53 4f 79 be 93 ab 2e be 91 c3 85 be a8 24 af be
       -0.24346666 -0.17057638 -0.26125768 -0.34207654
0002e0 68 29 e6 bb 84 80 82 bf ab fe 91 be d8 eb 7d be
       -0.007023979 -1.019547 -0.2851461 -0.24796999
0002f0 df bc bf 3d 64 42 3b bd 91 f6 60 3d cf 0f cd bd
       0.09362196 -0.045717612 0.054922644 -0.10012781
000300 8f 20 a9 bd 08 af 82 be 5b 8f 20 bf 35 a8 22 be
       -0.08258163 -0.25524163 -0.62718743 -0.15884478
000310 b2 fb 67 3d 6a fe 34 be 45 9b 16 bf b7 b9 2b bf
       0.05663652 -0.17675176 -0.5883067 -0.67080253
000320 94 63 4b be 25 b5 b4 be 70 3d 73 bd b9 b3 46 bf
       -0.19862205 -0.35294452 -0.059384763 -0.77617985
000330 fe 66 8d be a4 dd 80 3e f3 fb 0e be 00 cb 9a be
       -0.2761764 0.25169098 -0.13963298 -0.30233002
000340 9d de c1 be 19 3a 17 bd 2b 09 c6 3d c1 97 70 3e
       -0.37865153 -0.03692064 0.096697174 0.2349539
000350 a7 8f 4e be ae ca c7 be 07 af 62 bf 08 2f 90 be
       -0.20171987 -0.3902182 -0.8854832 -0.28160882
000360 06 31 03 bf 42 f6 ae be 28 a0 33 bf c6 45 08 bf
       -0.5124668 -0.34172255 -0.70166254 -0.53231466
000370 1c f4 38 3e a5 1a 7b be 53 d6 61 bf 4e e7 01 bd
       0.1806187 -0.24521883 -0.8821766 -0.03171473
000380 12 32 18 bf 15 92 be be 95 f4 1d bf cc 80 f5 3d
       -0.594514 -0.37220827 -0.6170133 0.11987457
000390 28 bb 8d be dd 69 1c bf f5 29 e1 be 8e c7 34 be
       -0.2768185 -0.61099035 -0.43977323 -0.17654249
0003a0 38 c7 aa 3c ac 2c 70 be 09 65 58 be e4 47 3f bf
       0.020846948 -0.23454541 -0.21132292 -0.7471907
0003b0 17 93 c2 be 8a 13 81 bd ed 16 aa 3c 06 d9 91 be
       -0.38002846 -0.06302555 0.020762885 -0.28485888
0003c0 85 06 57 be 28 18 0a 3d 12 77 f7 3d 70 36 74 3d
       -0.20998581 0.033714443 0.12083258 0.05962223
0003d0 df ff bc be 22 90 bc be 7d fd 29 3d 93 67 05 bf
       -0.36913964 -0.36828715 0.04150151 -0.52111167
0003e0 1b 1e d9 be 1e 7e 51 be a4 7b b8 be c9 96 87 be
       -0.4240578 -0.20458266 -0.3603183 -0.26482227
0003f0 44 1f 9e bc 84 e5 51 be 40 d4 d1 bd 4e 4a cb be
       -0.019302018 -0.2049771 -0.102455616 -0.39705127

fc2.weight f4 [256, 260]
000000 eb d3 4b be cd 6a 3f 3a 25 ea 0e be 00 cd 07 3e
       -0.19905059 0.00073019863 -0.13956507 0.13261795
000010 2b d8 bd 3d 0e a4 02 bc 34 6b 52 be 4b e7 4b be
       0.092697464 -0.007973684 -0.20548707 -0.1991245
000020 ed c4 25 3e 99 32 51 bd 04 05 d4 be fa da ff bd
       0.16188402 -0.051073644 -0.41410077 -0.12492938
000030 83 b7 08 be 84 58 30 be 5d 2b f2 be ab 31 65 3d
       -0.13351254 -0.17221266 -0.4729871 0.05595557
000040 b4 dc 23 be 37 79 4c 3e ee 3e b2 bd 60 57 17 be
       -0.1600216 0.19968115 -0.08703409 -0.14779425
000050 ec 67 37 bd 15 98 8b bd 16 ab c4 bd 42 d6 8e 3c
       -0.044776842 -0.06816117 -0.096029446 0.01743615
000060 81 f3 f2 ba af 04 ca 3d 17 56 28 3c bc 53 b7 bd
       -0.0018535705 0.098641746 0.010274432 -0.08951518
000070 43 27 da be d8 68 55 be 87 91 01 bc b1 cb 3e 3d
       -0.4260808 -0.20840776 -0.007908232 0.046580974
000080 7b fe c9 bd 7b 09 97 bd ea 40 db be cb 57 d1 bd
       -0.098629914 -0.07374855 -0.42822963 -0.10221823
000090 20 a0 06 be 37 b2 f1 bd 8d 04 97 be 0b 9d a9 bd
       -0.1314702 -0.1180157 -0.2949566 -0.08281907
0000a0 7f 70 07 3d 25 e4 8a 3c c7 c3 c0 bd cc e4 31 bd
       0.03306627 0.01695449 -0.094123416 -0.04343109
0000b0 4b 5d 39 3e 40 f2 ba bd 32 64 1c 3d a7 57 e7 bd
       0.18101995 -0.09128237 0.03818149 -0.11296015
0000c0 0a 98 ec bb 8b 44 10 be d4 34 82 bd 31 92 11 be
       -0.007220273 -0.14088647 -0.063577324 -0.14215924
0000d0 27 22 97 bd 24 ca 72 bd 27 9c 20 3e 3c 95 f6 bd
       -0.07379561 -0.059274808 0.15684567 -0.12040183
0000e0 5a 14 42 bd de 93 4e be 02 e4 0a 3b e8 56 b5 3c
       -0.04738269 -0.20173594 0.0021193032 0.022136167
0000f0 93 39 68 3d c0 4d 1b bd f1 5a 27 bc c7 9a 28 be
       0.056695532 -0.037915945 -0.010214553 -0.16465293
000100 95 36 89 3c 34 ef ce bd 1a 5e 8c bd 1c 5a 42 be
       0.01674966 -0.10104218 -0.06853886 -0.18979686
000110 89 44 e7 bc 5f 2e d6 be bc ff 47 be 43 7d ba be
       -0.028230922 -0.41832253 -0.19531149 -0.36423692
000120 d4 72 0e bd 59 c6 55 bd 7d a9 a4 bd 3f 80 4b bf
       -0.034777477 -0.052191112 -0.0804014 -0.79492563
000130 ca 23 3f be fd 36 e8 bd 6f d3 98 be b8 c2 09 be
       -0.18665996 -0.11338613 -0.2984881 -0.13453186
000140 62 4f 51 3d 2a 27 3a bc 34 1f 42 be ed c1 77 be
       0.051101096 -0.0113618765 -0.18957216 -0.2419507
000150 b3 57 52 be 37 79 e5 bd 82 ce 32 bd 66 94 8e bd
       -0.20541267 -0.112047605 -0.043653972 -0.069618985
000160 17 37 2c 3d 3f f9 44 bf 8d 7c 9d be b3 2c 37 bc
       0.042044725 -0.7694282 -0.30759087 -0.011180091
000170 d4 43 cd be 7d f5 7e 3d 30 7e 8c 3d e6 b5 49 be
       -0.4009081 0.062245835 0.06860006 -0.19698295
000180 81 15 d3 bd 48 75 31 bd fe 3c e2 bc 82 77 3b bd
       -0.10306836 -0.04332474 -0.027616974 -0.04576827
000190 51 a0 03 be 19 d1 ba 3c ad 07 22 bf 57 ee 89 bd
       -0.12854125 0.022804784 -0.6329296 -0.06734913
0001a0 74 d8 22 3c 27 b3 28 be bf 2e 9f bd de 4e 06 be
       0.009939302 -0.16474591 -0.07772588 -0.13116023
0001b0 3b d5 7e bd f4 47 ec bd b7 9d 90 bd 29 ae cc 3b
       -0.06221507 -0.115371615 -0.07061332 0.0062463474
0001c0 e6 d5 17 bc 48 78 cf 3c c4 3c 93 be 0b 37 98 be
       -0.009267306 0.02532591 -0.28757298 -0.29729494
0001d0 cf c8 25 bd 1f 20 87 3b b8 66 8f be a5 e7 22 bd
       -0.04047471 0.004123702 -0.28008056 -0.039771695
0001e0 40 f9 05 bc ac e5 e6 bd a4 67 9b be b7 36 6e 3d
       -0.008177102 -0.11274275 -0.3035251 0.05815765
0001f0 e2 ca 0f be 17 24 39 bf 4a 7e 7a bd c6 c5 f5 bd
       -0.14042237 -0.72320694 -0.061155595 -0.12000613
000200 ac d1 d4 bd 95 f3 77 be 45 87 8b be 42 c9 10 bf
       -0.10391554 -0.24214013 -0.2725164 -0.56557095
000210 f7 55 e1 bd eb 4e b7 3c 69 4f 9e 3b 52 38 c8 3b
       -0.110027246 0.022376498 0.004831244 0.0061102295
000220 fb b5 06 be e3 b8 53 3c 38 ad af bd 5b 35 96 bd
       -0.13155358 0.012922498 -0.08577961 -0.073343955
000230 e8 64 6a 3d 0d 0f 3a be b5 df 2c be ac 9f ba be
       0.057225138 -0.18169804 -0.16882212 -0.36449945
000240 a0 cd 96 bd c7 e4 62 be 5b a6 42 3d 11 87 47 be
       -0.073634386 -0.22157584 0.04752193 -0.19485117
000250 92 a7 5b 3e f9 cc 98 bd 95 ce cc bc ff 4f 14 3d
       0.21450642 -0.074609704 -0.02500085 0.036209103
000260 33 33 18 be 55 5c 12 3d 28 c2 68 3c bd a9 79 3c
       -0.14863281 0.035732586 0.014206447 0.015238223
000270 41 7a 4d bd 53 9c 35 be 0d 68 14 bd dc db be be
       -0.05016542 -0.17735414 -0.036232043 -0.37277114
000280 ca aa 62 be 1f 97 20 be a6 22 ac 3d c4 10 24 be
       -0.22135463 -0.15682648 0.08405046 -0.1602202
000290 97 88 d9 3b 41 c7 53 be 6a 06 cc be cc 31 23 3c
       0.006638597 -0.20681478 -0.39848644 0.009960603
0002a0 45 19 00 be a4 ce e6 3d 29 6c f1 3d d9 a2 4c be
       -0.1250964 0.11269882 0.11788208 -0.19983996
0002b0 0f 23 4a bd 18 4d 85 bd 0f be af bd 77 eb e9 bc
       -0.04934984 -0.06508845 -0.08581173 -0.028554661
0002c0 b1 0c 9e 3d 84 54 34 3c ea 55 70 be dc 7d e3 be
       0.077172644 0.011006478 -0.23470274 -0.4443196
0002d0 55 ff d8 bb 67 20 be bd e2 26 9e be ae 79 13 bc
       -0.006622235 -0.09283524 -0.3088904 -0.009001179
0002e0 55 b6 e6 be 0e b3 ae bd 07 52 d6 bd 8a b6 c1 bc
       -0.45060983 -0.08530246 -0.10464864 -0.023646612
0002f0 6b 6c 20 3e 1a 00 8e 3d 4c de dc bd b3 12 24 bd
       0.15666358 0.06933613 -0.10784587 -0.040056895
000300 ca a9 ca bd 9b be 82 bd 2d f4 9e bd de 2c 69 be
       -0.09895666 -0.06384011 -0.077614166 -0.22771022
000310 29 63 ab 3d b1 8c 20 be 48 9d 84 bd c1 c1 62 bd
       0.08368523 -0.1567867 -0.064753115 -0.05536056
000320 e5 a9 e2 bd e5 21 e1 bc b7 37 a7 bd 84 a7 92 bd
       -0.11067561 -0.027481982 -0.08164924 -0.07160857
000330 ff e3 f9 bc 2b 2d 5d 3d 79 68 ba 3c 22 e6 0c bd
       -0.030504225 0.053998154 0.022754895 -0.03439916
000340 14 fc 6b be ea 76 8c be c0 c2 6e be 8c a7 88 3d
       -0.23045379 -0.27434474 -0.23316479 0.06672582
000350 31 36 a9 bc f7 5f 94 3b e6 ef 9b 3c 22 d4 65 be
       -0.020655723 0.0045280415 0.01903529 -0.22444203
000360 a8 4e 56 3d a0 22 ae bc 34 43 76 be b3 42 45 39
       0.052321106 -0.021256745 -0.24049073 0.00018812231
000370 24 8d 86 3d c1 a8 d2 be 54 3e d0 bd 18 0e f4 bd
       0.06569889 -0.41144374 -0.10168138 -0.11916751
000380 c3 d3 be 3c e5 fd 12 bd 8c 79 2f 3d a6 30 39 bb
       0.023294335 -0.035886664 0.042840526 -0.0028257756
000390 79 22 e1 bd 19 00 27 be 63 70 c6 3b 6d 49 11 be
       -0.10992903 -0.16308631 0.006055878 -0.14188166
0003a0 41 bd 88 bd 46 e5 8a 3c 77 d1 88 be af be e8 bd
       -0.06676722 0.01695503 -0.2672231 -0.11364495
0003b0 c8 56 d1 bd 8e e4 22 bd 59 35 6a 3d 26 a2 ab be
       -0.1022163 -0.039768748 0.057179783 -0.33522147
0003c0 89 5d 58 be 6c 94 19 bd 1b ff c6 be 65 95 36 3d
       -0.21129431 -0.03749506 -0.38866505 0.044576067
0003d0 41 50 75 bc b6 88 ea bd 5d b9 fe be 5b 05 15 be
       -0.014972747 -0.11451857 -0.49750796 -0.14552824
0003e0 2f 74 dc be 82 2d 4a bd 38 c4 f9 bd 9c f3 44 be
       -0.4305739 -0.049359806 -0.12195629 -0.19233555
0003f0 92 c2 dc bd 85 e7 22 bd d4 eb b1 be 62 de f4 3c
       -0.10779299 -0.039771575 -0.34750235 0.029891197

fc2.bias f4 [256]
000000 e7 62 d8 bc 6c 41 dc bd 85 f5 89 be fe a5 bf be
       -0.026414348 -0.10754666 -0.2694513 -0.3743133
000010 c3 51 e5 be 0b 54 1b be cb 35 11 bf 17 dc fa bd
       -0.44788942 -0.15168779 -0.56722707 -0.1224901
000020 4a cc ee bd 75 79 33 be fb a8 ca be a0 c6 a7 be
       -0.11660059 -0.17526801 -0.39582047 -0.32768726
000030 4e b2 fe bd 1c 6e 68 bd 79 fe d4 bd fd 7c 53 be
       -0.12436353 -0.056745633 -0.10400099 -0.20653148
000040 c5 ff ff bd f0 1d 69 be 43 1e 93 be f5 69 53 be
       -0.12499956 -0.22765326 -0.28734025 -0.20645888
000050 18 fa 14 bf 91 91 ed bd 7f ac 3c be e1 53 ab bd
       -0.5819411 -0.1160003 -0.18425177 -0.08365608
000060 38 e9 84 3c 0d a1 28 be 6e 5c be be 1b 29 a1 be
       0.016224489 -0.16467686 -0.37179893 -0.31476673
000070 dd 22 fc bd 15 4f b5 be 00 14 90 be 9a 0c 4a be
       -0.12311337 -0.35411897 -0.2814026 -0.1973137
000080 19 d6 2c bd 11 50 28 bf bb 3f 5a bd c5 c5 3a be
       -0.042196367 -0.6574717 -0.053283434 -0.18239506
000090 75 c8 1d be ae 0d c1 bd 29 c2 89 be 17 19 4a be
       -0.154085 -0.09426437 -0.26905945 -0.19736134
0000a0 6c ba 31 be fd e0 99 be f9 13 59 be 81 4b a1 be
       -0.1735627 -0.30054465 -0.21199025 -0.31502917
0000b0 aa e0 7b bd 09 7c 9e bd 4c c3 54 3e 96 f9 54 be
       -0.061493553 -0.077385016 0.20777625 -0.20798334
0000c0 c3 57 ca be bb d8 37 be 0f 7c af be 5a 7f 6e be
       -0.39520082 -0.1795377 -0.34274337 -0.23290768
0000d0 a9 71 91 be d9 00 3f be a3 e4 51 bd 4c f1 5d be
       -0.28407028 -0.18652667 -0.051243436 -0.21674079
0000e0 4a 5f 95 3d 40 e8 c1 bd 6c 10 37 3d 30 ff 0a be
       0.072935656 -0.09468126 0.044693395 -0.13573909
0000f0 25 1f fd bd e1 3f ac bd 4a 01 37 3f 2c 31 17 be
       -0.12359456 -0.084106214 0.7148634 -0.14764851
000100 73 57 39 3c 82 0d 41 be 65 8e 7a be 61 78 b4 bd
       0.011312353 -0.18852809 -0.24468382 -0.08812023
000110 d5 75 a2 be e7 c0 11 be 3a 88 90 be e7 13 52 be
       -0.31730524 -0.14233743 -0.28228933 -0.20515405
000120 6f 01 ca be 78 8f de be f8 1d c0 bd 5f 66 d9 bd
       -0.3945422 -0.43468833 -0.09380716 -0.10615229
000130 e6 56 9f be 09 29 3a 3d 7d ae 9e bc eb 30 ab be
       -0.31120986 0.04544929 -0.019370312 -0.3343576
000140 52 38 18 be f3 f4 2b be 4f f9 87 be f6 7e bf 3e
       -0.14865234 -0.1679266 -0.26557395 0.3740155
000150 88 e3 00 bd 04 da 2f bd f6 fb 7d be 0b 90 c4 bd
       -0.03146699 -0.042932525 -0.24803147 -0.095977865
000160 db ab 31 be 1b 74 1d bd a8 d7 40 be f3 26 ee bd
       -0.17350714 -0.038440805 -0.18832266 -0.11628523
000170 69 b3 09 be 2a 7d c9 be 75 b0 c5 be 73 7c 20 3e
       -0.13447346 -0.39353305 -0.3861119 0.15672474
000180 90 b7 a0 be bb 71 c1 bd 85 8b fc bc 3b 21 7b be
       -0.31390047 -0.094455205 -0.030828247 -0.24524395
000190 06 ec ae 3d e0 0e 8a be 2e 6f 8f bd 21 da 58 be
       0.08541112 -0.26964474 -0.07003628 -0.2117696
0001a0 70 72 67 be 30 dc 11 bf 36 b0 71 be 00 80 11 3e
       -0.22602248 -0.56976604 -0.23602375 0.14208984
0001b0 8a cc 70 be 5f 76 ef be c9 00 a5 be 0c b7 b0 be
       -0.23515525 -0.46769997 -0.32227162 -0.34514654
0001c0 75 d7 bf be 30 8d c0 be 22 fe 0b b9 ea 75 1f be
       -0.37469068 -0.37607718 -0.00013350745 -0.15572324
0001d0 f5 4d 46 3e 67 8e 05 be 3e a7 82 be c2 65 00 bf
       0.19365676 -0.13042603 -0.2551822 -0.5015527
0001e0 38 79 b4 bd b4 90 92 bd 95 f0 d7 be 12 4a bf be
       -0.08812183 -0.07156506 -0.42175737 -0.373612
0001f0 03 a8 08 be d3 df fc bd a7 91 06 be 33 bf 87 be
       -0.13345341 -0.123473786 -0.131415 -0.2651306
000200 8e 42 7b be d7 73 b7 bc ec a0 5b be 53 73 01 be
       -0.24537107 -0.022394104 -0.21448106 -0.12641649
000210 d3 9f 5a bf 82 d7 2e be 59 0b 31 be 0d cb 64 be
       -0.8540012 -0.17074397 -0.17289485 -0.22343083
000220 16 cc ae 3e 0f a2 2c be ab 65 ae be 6e 2e 36 be
       0.3414008 -0.16858695 -0.34061942 -0.17791149
000230 6d 45 51 be 16 2b 45 bd 4d e5 87 be 3e 46 6e 3d
       -0.2043664 -0.048136793 -0.2654213 0.058172457
000240 43 05 e0 be e5 91 68 bd 55 d7 87 3d 11 55 00 be
       -0.43754014 -0.05677976 0.06632868 -0.1253245
000250 09 bd 59 be 57 21 b5 be 3a f6 bc 3c c8 e9 b9 be
       -0.21263517 -0.35377 0.023066629 -0.36311173
000260 f2 5f 00 bf 9a e0 4a bd 78 47 c1 bd ac 54 4a be
       -0.501464 -0.049530603 -0.0943746 -0.19758862
000270 37 f6 11 be e5 8a d1 bd 1f 1e 24 bd 61 1d b9 bd
       -0.1425408 -0.1023157 -0.04006779 -0.09038807
000280 a1 ed 31 be 7b 0f 9b bd e9 48 9b be d3 16 d7 bd
       -0.17375804 -0.07571312 -0.30329064 -0.105024
000290 cf 4c ad be bf 4e 91 3c 7a 1b 3d be 15 6d 0f be
       -0.33847663 0.017737744 -0.18467513 -0.14006455
0002a0 30 58 2e be 9e 93 19 be 30 27 f5 bd e1 77 69 be
       -0.17025828 -0.14997718 -0.11970365 -0.22799636
0002b0 4d 4e 32 be a0 4e 03 be a3 bc 59 bd d3 de 5c bd
       -0.17412682 -0.12822962 -0.053158414 -0.05392344
0002c0 04 76 83 be 8b b2 af bd a0 99 b7 bd 5c db 27 be
       -0.25675976 -0.08578976 -0.089648485 -0.16392273
0002d0 19 ad 7b be 2c e8 27 be 98 5c 56 be 6e b3 ca be
       -0.2457775 -0.1639716 -0.20933759 -0.3959002
0002e0 67 11 9c be 9f f9 46 be da ab 9c be 40 b0 3f be
       -0.30482027 -0.1943116 -0.30599862 -0.18719578
0002f0 7e 69 17 be 26 12 f4 be e6 96 6f be 19 c6 d5 be
       -0.14786336 -0.47670096 -0.23397407 -0.417527
000300 0d cd 0c be c4 1d b7 bd 68 d3 c8 bc e7 0a 96 bd
       -0.13750096 -0.08941224 -0.024514869 -0.07326298
000310 e0 de e9 bc 67 2c 21 be 75 51 a1 be 65 c2 0b be
       -0.028548658 -0.15739594 -0.3150746 -0.13648374
000320 13 65 19 be 7c c8 80 bd 3b cd 84 be e3 83 a8 be
       -0.14979963 -0.06288239 -0.25937828 -0.32913122
000330 a3 fc 51 be cf 32 84 3e bb 67 37 be e6 12 6d be
       -0.2050653 0.25820014 -0.17910664 -0.2315174
000340 fe ad 43 be 04 64 44 be 7a 18 d8 bd de 39 8e be
       -0.19109342 -0.19178778 -0.105515435 -0.27778524
000350 12 3d 95 bd cb 05 b7 be 13 82 36 be ad 0f 8d be
       -0.07287039 -0.35746607 -0.17823057 -0.27551022
000360 cf d7 a1 be 30 01 af 3c e3 16 4e be 2b 0f 84 be
       -0.3160996 0.021362871 -0.20125918 -0.25792822
000370 a4 5e f3 be 37 34 25 be 96 fd eb be a3 04 e5 be
       -0.47533143 -0.161332 -0.46091908 -0.447301
000380 59 3c a0 bd db e1 e8 bd dc 4a ac bd 61 9d 4d be
       -0.078240104 -0.113712035 -0.08412716 -0.20079567
000390 43 b7 45 be 3d 82 82 be 57 bd 5a be 14 82 82 be
       -0.1930819 -0.2548999 -0.2136129 -0.25489867
0003a0 7b b2 3f be 4c c1 e3 bd a1 da 91 be f7 6c a2 be
       -0.18720429 -0.11120853 -0.28487113 -0.3172376
0003b0 b5 6e be bd 13 4f a7 be 26 65 b9 be 20 92 13 bf
       -0.092984594 -0.32677516 -0.36209983 -0.57644844
0003c0 70 9c 01 be d6 4d 80 bd a9 3a c1 3d 7f ef 24 be
       -0.12657332 -0.06264846 0.09435017 -0.16106986
0003d0 2b 57 fc bd 5a 2b 70 3e b4 20 dc bd b1 b0 be be
       -0.123213135 0.23454037 -0.10748425 -0.3724418
0003e0 a8 74 32 be 3c 8f 19 be 66 98 a2 3d 08 16 27 be
       -0.17427313 -0.14996046 0.07939224 -0.16316998
0003f0 53 4f 5b 3d e3 27 81 be b7 f8 36 be 70 04 32 bf
       0.053542446 -0.25225744 -0.17868315 -0.6953802

fc3.weight f4 [1, 256]
000000 b9 a9 91 3c b4 db 99 3c ff c0 80 bb fb fd ab bc
       0.017781125 0.01878152 -0.003929257 -0.02099513
000010 76 bc 68 bc 8d 5d 01 bc 9b 18 69 bb fe e4 84 bd
       -0.014205089 -0.007895839 -0.0035567645 -0.06488989
000020 76 33 66 3b e0 86 ff 3c 43 1f 1f bd 63 4f 76 bc
       0.0035125888 0.031192243 -0.038848173 -0.015033576
000030 18 ff 6b bc 8b 82 4e bc 5c 51 04 bb 0e f2 9c 3b
       -0.014404081 -0.012604366 -0.0020190096 0.0047895974
000040 52 83 9b 3b cd 17 be 3c 54 0e 95 3b 52 88 e6 bb
       0.004745879 0.023204708 0.004548827 -0.0070352936
000050 0c 27 15 bc 3f b1 a2 bb e1 e3 62 3c e6 4b 9c bc
       -0.009103548 -0.004964977 0.013848276 -0.01907916
000060 f2 86 10 3c 61 8e c5 bb e0 03 a6 bc b5 9f 14 bc
       0.008821236 -0.006028936 -0.02026552 -0.00907128
000070 eb f5 d8 bb 2c 39 4f 3d f4 10 be 3c 61 ac 66 bc
       -0.0066211126 0.050591633 0.023201443 -0.014079184
000080 e0 80 09 bd ac 3c 75 bc b8 4c 2a 3c e2 dd aa bb
       -0.03357017 -0.014968079 0.010394268 -0.005214439
000090 34 9f 91 bc 06 04 44 3c ad 42 8b 3b 75 fd 27 3c
       -0.01777611 0.01196385 0.0042498917 0.0102533
0000a0 91 b7 e6 3b a7 7b 9d bc e2 cf c8 3b 07 d3 00 bd
       0.007040926 -0.019224001 0.006128297 -0.03145125
0000b0 62 33 ea bb ad 7e aa 3b 42 61 c7 bb 18 c9 e8 3b
       -0.0071472386 0.005203089 -0.006084592 0.0071040504
0000c0 11 e9 b7 bc d9 6d cd 3b 36 58 74 bc fb 29 62 3a
       -0.022450002 0.0062691984 -0.014913609 0.00086274714
0000d0 48 29 8b 3c 26 26 6b bc 0a 0f 41 bc c9 96 c1 3a
       0.016987458 -0.014352357 -0.011783371 0.0014769669
0000e0 90 1d 9f 3c 84 bf 47 3c 53 67 c2 bc f7 00 4c 3a
       0.019423276 0.012191657 -0.02373091 0.0007782126
0000f0 96 19 b6 bc 83 cb 1b bc da 50 bf 3b 0d 37 5f bc
       -0.022228997 -0.00950897 0.0058384957 -0.013623965
000100 ed 0f cb bb 1a 89 6a bc 7d 37 b5 bc 3a cd 52 3c
       -0.006196967 -0.014314914 -0.022121185 0.012866313
000110 b1 44 fd bb 5b 99 b0 bc f1 67 31 3c bc af bd 3c
       -0.007729136 -0.0215575 0.010828004 0.023155086
000120 2b 4e 71 3c 84 fd 51 bc 99 9c 00 bc 89 f2 9c 3b
       0.014728109 -0.0128167905 -0.007849836 0.0047896546
000130 2b 77 3e 3c c9 9e 85 bc 67 9e 03 3b b8 e8 93 ba
       0.011625092 -0.016311066 0.0020083429 -0.0011284566
000140 7e f9 8e 3c bf 97 e8 3b 50 87 dd 3b 24 85 9e 3b
       0.017452952 0.0070981677 0.0067605153 0.004837649
000150 81 b0 6b bb 94 87 4d bc 7c e8 45 bb 73 87 3a 3d
       -0.0035963359 -0.012544531 -0.0030198386 0.04553933
000160 ed 1c 7f bc 14 50 c4 3b dd b3 7a 3c ee 4e 0a 3c
       -0.015570861 0.0059909914 0.015301672 0.00844167
000170 37 7b 8c 3c 24 be 79 bc 6d 46 ac 3b cc 7b cf bb
       0.017148597 -0.015243087 0.005257419 -0.0063318964
000180 f1 00 52 3b 20 67 5c 3c 0d 24 77 3b e4 45 26 3c
       0.0032044018 0.013452321 0.0037710697 0.010148499
000190 41 e7 65 3b 10 de be bc 4d ef 76 bb 37 b3 97 3b
       0.0035080465 -0.023299247 -0.0037679255 0.0046295184
0001a0 7a b8 16 3c b6 ac 05 bc 4e bd d6 3a 2d b7 f3 bb
       0.009199256 -0.008158853 0.0016383321 -0.0074376077
0001b0 90 ba 42 bc 1c 1f ae 3c c3 dd 09 3d 52 e5 89 3c
       -0.0118853 0.021255068 0.033658754 0.016832981
0001c0 6c 63 57 b9 b5 82 f1 bc 4b f8 34 bc 71 63 b0 3c
       -0.00020541035 -0.029481271 -0.011045526 0.021531792
0001d0 5b 94 92 3b d9 ba c4 3c 20 c8 c2 ba 52 9f 42 bc
       0.0044732518 0.024014877 -0.0014860667 -0.011878805
0001e0 ea 25 34 3c 7e b2 62 3c e7 30 d4 ba d4 ff fc bb
       0.010995368 0.013836501 -0.001618889 -0.007720927
0001f0 1a 85 3c bc 0c ba 8a 3c 80 16 9f 3c 86 54 27 bc
       -0.011506343 0.016934417 0.019419909 -0.010213023
000200 3a 67 e8 bb 4d 1d b8 bb b4 01 2b 3d ac 45 70 3c
       -0.0070923837 -0.0056187273 0.04174967 0.014665049
000210 45 38 6d bc d0 6d 33 bc ca 8d 5a 3c f8 44 31 bc
       -0.014478748 -0.010951474 0.013339469 -0.010819666
000220 5e 0d 86 3c 8b 6c 67 39 59 2c 15 bc 49 69 0f bc
       0.016363796 0.00022070312 -0.009104812 -0.008753129
000230 5f bc 03 3c 7f 60 5a 3a 1d f4 c0 3c 67 6d d2 3b
       0.008040517 0.0008330419 0.023553902 0.006421733
000240 7d 6f 37 bc 11 f7 66 bb 7c 5c 85 3c ce a4 81 bc
       -0.0111960145 -0.0035242478 0.016279452 -0.015825655
000250 44 5c 90 bc 72 50 7c bc 2e 88 8c 3c af f9 b0 bb
       -0.01762212 -0.015400039 0.01715478 -0.0054008584
000260 6f a0 9d bc 79 ac 00 3c 9d 11 8f bc 54 f3 ad 3b
       -0.01924154 0.007853621 -0.017464453 0.005308548
000270 6f cb 0a 3d f9 81 f3 bb 97 f5 de bc 2d 10 60 3c
       0.033885416 -0.0074312654 -0.027216716 0.013675732
000280 ca b4 cd 3c 5a 7f 86 bc 2f 28 d3 bb 70 d8 c4 3a
       0.025110621 -0.016418148 -0.0064439992 0.0015018117
000290 5d 02 85 3b b3 73 7c bb 56 e9 fa b8 f9 b7 de bb
       0.0040591196 -0.003852111 -0.00011964391 -0.0067968336
0002a0 27 2b 02 3c 4b 0c 36 bc 4f 3e 03 bc 01 44 05 3c
       0.007944859 -0.011111329 -0.008010461 0.008133889
0002b0 5b 30 82 3c a1 2a 11 3c 76 c1 ee bc 6c 4d 18 bc
       0.015892198 0.008860261 -0.029144984 -0.009295803
0002c0 0a f5 65 3c cd a6 e5 bb 60 87 e2 ba 0c cb 39 3c
       0.014035473 -0.0070084096 -0.0017282777 0.011339914
0002d0 34 8c 8b 3c c4 7d 20 bc 1f 51 aa bc 9d 88 76 3a
       0.017034627 -0.00979561 -0.020790635 0.0009404512
0002e0 e3 2d 04 bc fd 4d e2 bb 10 45 29 bc 70 de 52 bb
       -0.008067581 -0.0069062696 -0.010331407 -0.003217604
0002f0 5f 76 09 3c d5 73 f0 bb 82 80 91 bc 52 1a 9f bc
       0.008390038 -0.007338027 -0.017761473 -0.01942173
000300 ad ba a3 bc 39 32 a3 bc 1c 5e 14 3b 6e ce ed bb
       -0.019986475 -0.019921409 0.0022639101 -0.0072572744
000310 49 87 88 3b fd 85 81 3c eb d5 44 bb 64 c2 96 bc
       0.004166518 0.01581096 -0.0030034732 -0.01840324
000320 27 ce 29 3c 6c 41 0f bc b6 b7 90 3b e1 da 5a 3c
       0.010364092 -0.008743625 0.0044164313 0.013357849
000330 cb 98 29 3c b4 8b 37 bc f9 e4 39 3c e7 b0 e0 3b
       0.01035137 -0.011202741 0.011346095 0.006857026
000340 83 7b 32 bc 84 24 f5 bb 3f d6 80 bc 35 90 b8 bb
       -0.010893705 -0.0074811596 -0.01572716 -0.005632425
000350 d7 5e ae 3b 9b 8d a9 3c cf 1a 34 3c 7b f1 de 3c
       0.0053213644 0.020697406 0.01099272 0.027214756
000360 49 d7 69 bc 99 64 49 3a ee c4 54 3c 0e 94 b2 bb
       -0.014272519 0.0007682532 0.012986405 -0.0054497784
000370 72 b5 81 bc 65 54 7a 3b 43 4a 10 bc 8b 01 0d bc
       -0.01583359 0.0038197276 -0.008806768 -0.008606325
000380 9f b3 bb 3b ac a1 c5 3a f3 05 02 bd 9b a6 49 bc
       0.0057281996 0.0015078089 -0.031743955 -0.012307788
000390 44 8c 5f 3c 5a dc f7 3a ec 70 41 bc 34 7f a2 bb
       0.013644282 0.0018910274 -0.011806708 -0.0049590115
0003a0 9b f8 9b 3a a0 f4 b3 3c c0 0d 85 3c fc e8 b5 b9
       0.0011899652 0.021967232 0.016241908 -0.00034696597
0003b0 69 05 b8 39 d3 f9 49 bd 93 4c c4 bc 3d d5 3c bc
       0.00035099246 -0.049310517 -0.023962295 -0.011525449
0003c0 4e c6 14 3b f2 50 bd bc a8 e3 9a bc 36 24 d0 3c
       0.0022701207 -0.023109887 -0.018907383 0.025407892
0003d0 18 14 82 3c fa a8 93 3b a7 71 bc bb a4 a3 fb ba
       0.015878722 0.0045062276 -0.005750853 -0.0019198549
0003e0 0e f4 8d 3b 12 69 02 3c a8 7e 3d 3b 62 d1 a1 3b
       0.004332072 0.007959621 0.0028914604 0.0049382905
0003f0 7f dd bd 3b b9 de 47 bc 6e fc 76 3c 0b a1 9c bb
       0.0057942267 -0.012199097 0.015074832 -0.00477994
