p3_collab-compet/assets/checkpoint_critic_0.pth (torch_old, 319492 bytes, 5 tensors)

fcs1.weight f4 [256, 48]
00000000: 4a94 efbc 6f8f 30bd 9aee 72bc 4ff3 ca3e
00000010: c514 d93d 0b35 a9bd 3549 82bd 4726 d03e
00000020: 64c4 af3c c39a 8bbd a977 76bd ba88 27bc
00000030: 120b b83d f2fe edbd bf26 cebd 8e76 993d
00000040: 1e5c 143e 1cd9 0c3e 8079 0a3d 8e72 363f
00000050: 2d31 f23d 8b2c 8ebe ada5 cc3d b4f0 4a3f
00000060: d4e2 e0bd b280 74bd 31f9 7fbd 927d 613c
00000070: cbde 07be 7801 18bd a243 03be 8942 c8bc
00000080: 6b0f e13d d276 c4be 6116 30bb 6b25 2a3d
00000090: 85ca 83bc 3c71 f0bd 41cb 4eba cf66 113e
000000a0: 2b48 d53e 1e18 8bbe ea0f 53bd 26a3 c93d
000000b0: ccd8 ddbd 9708 99be e4d0 06bd 9370 003d
000000c0: 28fc bdbc 0f7a bf3e bf96 a53d 06c2 61be
000000d0: 2073 b63d 4616 fdbd 7a61 f83d a6cb 64be
000000e0: 9c8f 4dbc 49d2 d93e 4280 0a3d f403 edbd
000000f0: 40cc d0bd f109 22bf 5ed2 213d 1eff f3bd
00000100: 4176 89bd d6eb 223e b4bc 9cbd 9077 41be
00000110: 434f efbe 33fe 84bf 703a 15bd 3075 49be
00000120: 650e 963e c689 643f 2fab e7bd 1f87 f5bd
00000130: a8f0 2c3c 48d6 99bd 3151 ebbd cb57 cdbd
00000140: 95cd 253e 9c53 693f ca7d 19bc d9a6 b3bd
00000150: db8a 423e c1f7 23bf 96ea 61bd 39ff c5bd
00000160: e36b 8b3d d37b 143f 13dc ae3b d6c2 adbe
00000170: f1ca fc3e 3665 89bf 77ba a43d 2869 babe
00000180: 2735 aabc 61e5 413f e3ff 823b 6d1f cdbd
00000190: 321c 52bc cf43 96be 5ca9 92bc eb87 b1bd
000001a0: 52af a13d 25f4 cc3e d180 953d 1125 2dbe
000001b0: 24f3 803d c7b3 10bf 62ce 68bc 79f5 15be
000001c0: 91b2 9f3d ce05 d73e 6c33 583e e52a 3a3e
000001d0: cbc1 38be 7aa6 b3bf a473 5f3e 012d 553e
000001e0: 38d8 c93d 977f 88bd 84b2 0d3d 9803 60bd
000001f0: cc0e a3bc 1251 66be 69d4 873d 8046 2bbd
00000200: e4ab 883e b988 b8bd da05 bbbc fc38 a8be
00000210: 1d0c e3bc 953d 08bf b74e 093c 6823 98be
00000220: cbd0 b93e 25e4 eabd 9b3c 27bd 041d e13d
00000230: e541 2d3e 14af b6bf 4de6 a1bd e388 4b3d
00000240: 44fb b13e ce89 c03e e4e4 e43c a867 c8be
00000250: aefe 93bc fea1 fabd 1fd3 20bd 9e4b e4be
00000260: 5d84 063e d604 ac3e abd5 2cbe 5306 fa3e
00000270: 8862 563e 4647 12bd c94e 24be d824 c83e
00000280: ac82 903e 4067 8a3e 689c 83bd c866 043d
00000290: f139 a83e 7641 51be 19c6 d3bc 5313 0a3c
000002a0: c808 103e 4dc3 fb3e 4b58 fbbd 48cf adbe
000002b0: bc0e b23c dc29 b1bd 2725 19bd d6e2 a2be
000002c0: 8357 0a3d f0ed f53e 1bc3 373e 350e 0a3e
000002d0: 5407 65be c09c 22bd 9946 453e 8513 283e
000002e0: 51e2 ff3b 7464 3f3f 0dfb d1bd 41eb 5d3c
000002f0: 0d9e b5be caae 0cbe e73c aebd 1f08 9d3c
00000300: cd92 6fbe 72a0 523f 1d64 34bb a5bb 9a3d
00000310: cc54 ac3e 5324 c5bd e46c 333d 9c2d 023b
00000320: 1737 12be 8620 793f a5c4 45bd 246d 2dbd
00000330: 5152 d83e 3edd 39be d422 9abc 5abf 02bd
00000340: 2284 963c 5bb7 4a3f f841 60bd 5444 adbd
00000350: 4b95 a13e 2133 7ebe 1926 5ebd 8e98 6f3a
00000360: 11d7 b13d 26d2 b33e 6bac ee3c 14f2 953e
00000370: b2b4 adbe 8f51 36be 8237 d13c a337 b73e
00000380: f910 153e 49d7 c03e a2e9 d8bc caab e4bd
00000390: 6727 acbe c997 d3bd 1baa 1abd a0a8 90bd
000003a0: 5628 b83d 7785 da3e 4fba 87bd ca51 34be
000003b0: efca 9dbe decb 7bbe dae7 26bd 5ca8 18be
000003c0: 51c8 3dbe 0fe7 3f3e d1a6 59bd 6ccf 3ebe
000003d0: 5319 703d 505e 11be 6ba5 0abd b0d7 0ebe
000003e0: 9a08 3dbc da06 573e a56a b2bd 64de 76be
000003f0: 3bd0 923e 94b6 04bd c757 fbbd c0da 53be
-0.029245514 -0.04310554 -0.014827395 0.39638755 0.105996646 -0.0826207 -0.063616194 0.40654203
0.021455951 -0.06816628 -0.06017271 -0.010225469 0.089864865 -0.116208926 -0.10065984 0.07493316
0.14488265 0.13754696 0.033807278 0.71268547 0.11825786 -0.2776836 0.09992538 0.79273534
-0.10980764 -0.059693046 -0.062493507 0.013762848 -0.13268583 -0.037110776 -0.12818769 -0.024445789
0.10989269 -0.38371903 -0.0026868808 0.04153959 -0.01608778 -0.11740348 -0.00078885636 0.14199375
0.41656622 -0.27166837 -0.05152885 0.09845571 -0.10832366 -0.29889366 -0.032914057 0.03135736
-0.023191527 0.3739781 0.08085393 -0.2204667 0.08908677 -0.12357764 0.12127967 -0.2234331
-0.012546446 0.42543247 0.033813722 -0.115730196 -0.101952076 -0.6329642 0.039507262 -0.11913894
-0.06712008 0.15910277 -0.0765318 -0.18893266 -0.4674016 -1.0390075 -0.036432683 -0.1967361
0.29307857 0.89272726 -0.113119476 -0.11988663 0.010555424 -0.07511574 -0.114900954 -0.10026511
0.16191705 0.911432 -0.009368369 -0.08772058 0.18998282 -0.6404992 -0.05515536 -0.096678205
0.06807687 0.5800144 0.0053362935 -0.3393771 0.49373582 -1.0734012 0.08043378 -0.36408353
-0.020777298 0.7574063 0.003997789 -0.100157596 -0.012824105 -0.2934861 -0.017903022 -0.086685024
0.07894768 0.40030017 0.072999604 -0.16908671 0.062963754 -0.5652432 -0.014209362 -0.14644422
0.07797731 0.41996616 0.21113366 0.18180425 -0.18042676 -1.403518 0.21821457 0.20817949
0.098556936 -0.06664961 0.034594074 -0.054690927 -0.019904517 -0.22491863 0.06632311 -0.04181528
0.26693642 -0.09010453 -0.022829939 -0.32855976 -0.027715737 -0.53218967 0.0083805835 -0.29714513
0.3629211 -0.11469296 -0.040829282 0.109918624 0.16919668 -1.427218 -0.079052545 0.049691092
0.34762013 0.37605137 0.027941175 -0.39141583 -0.018065777 -0.12237929 -0.03926384 -0.4458894
0.1313643 0.3359744 -0.16878383 0.4883295 0.20936024 -0.035712503 -0.16045679 0.3909061
0.28224695 0.27031898 -0.064263165 0.032324582 0.32856706 -0.20435128 -0.025851296 0.008427459
0.1406585 0.4917244 -0.122727 -0.33947206 0.021735542 -0.08650562 -0.037388947 -0.31813687
0.033774864 0.48033094 0.1794552 0.13481982 -0.22366077 -0.03970027 0.19265212 0.16413696
0.0078089614 0.74762654 -0.10252962 0.013544858 -0.35472146 -0.13738552 -0.0850771 0.019168912
-0.23395844 0.8227607 -0.0027525492 0.075553216 0.33658445 -0.09626069 0.043805018 0.001986361
-0.14278828 0.9731525 -0.048283238 -0.042340413 0.42250302 -0.18150803 -0.018815435 -0.03192077
0.018373553 0.7918603 -0.054750413 -0.08460298 0.31559214 -0.24824192 -0.05423555 0.0009139859
0.08683599 0.35121268 0.02913495 0.29286253 -0.33926922 -0.1780455 0.025539164 0.35784635
0.14557256 0.3766425 -0.026478592 -0.11165579 -0.33623812 -0.10331685 -0.03775988 -0.07063413
0.089920685 0.4267995 -0.066273324 -0.17609325 -0.3081889 -0.24589488 -0.040748455 -0.14907974
-0.18533446 0.18740486 -0.053137604 -0.18633813 0.0586179 -0.14196134 -0.03384916 -0.13949466
-0.011537695 0.20998707 -0.08711747 -0.24108273 0.28674492 -0.032400683 -0.122726016 -0.20688915

fcs1.bias f4 [256]
00000000: 96c8 c7be d084 7f3d a6e3 9f3d fa6e 15bf
00000010: 44e1 a9be c383 e6bd 2467 96be 3b6c a53d
00000020: c7d4 9ebe 5ba1 85be bd95 583e 5001 9ebe
00000030: 0add d83d 8638 9dbd 5953 49be 30b7 0ebe
00000040: 4866 6fbe a7d5 7bbe 41d9 23bf a09f 313d
00000050: 4b2e 6cbe 8fd2 17bf 7870 57be dd2b 93be
00000060: 75d8 61be e9f8 6dbe 19b3 3f3e 413d 3b3d
00000070: 8254 d2be 19f6 223d fa72 6bbf 36bc d5bd
00000080: 53a5 1e3f ac09 81be 8da0 433f 7826 f4bd
00000090: 759a 1dbf 8bed 26be fb6e 05bf 9d93 47bf
000000a0: edc3 78bc f691 2bbe 807d b2be 8160 06be
000000b0: 42d6 99be 37d6 a5be 36b2 e2be b85f 3ebf
000000c0: 7003 c6be a629 f3be cd8b adbe b880 6ebe
000000d0: 33ca ddbe 0779 9fbe e774 c8bd 1982 fbbe
000000e0: 24af 2cbf d53a f33d cf13 d9be ce04 f1be
000000f0: 2320 4fbe 1ac8 8e3e 2df3 ccbc 5dd0 b7be
00000100: 393e e43c b405 d7bd 6b98 44bf 965c 88be
00000110: 73ac 2cbf 0820 4dbf 04ff 183e 9bcf e5be
00000120: 4866 eabd 2022 7dbe 41c7 68be 551b c33b
00000130: 32b2 1fbf 497c 67be 7cac 4bbf 687c cc3d
00000140: 908d 53be 71e8 1dbe 04fe 9c3e f9e1 c8bd
00000150: 2774 c6be ee6f 40be 3ac8 8dbe 596d 0cbf
00000160: b8f0 83be 6e90 d33d 1e73 12bf 66f7 b9be
00000170: f62b 3c3d 58b8 a5be dcca 813e ed71 4fbd
00000180: 21cd a8bd ebd7 aa3e f392 2e3c 9cdf 3abe
00000190: ac30 e83d 0ad4 92be 9c63 47be 9bda 08be
000001a0: 5c34 dbbe 58ae 2fbe 1367 d1be 8fbd ad3e
000001b0: 4438 79bf a198 873e cb9e 22bf 7111 aabe
000001c0: 9f5f 8d3d 9e1c 71be fa5e bcbe 0fc2 71be
000001d0: e1ce 0dbf ba21 b3be 8bbe d7be 1e50 36bd
000001e0: 02a0 493e a739 3bbf a5a2 6dbe ea7f 02be
000001f0: d8c4 11be ff57 883c 711a 86be a2b7 a0be
00000200: 4886 85bd 6ac0 07be e32e 94bd 1921 2ebe
00000210: 3be7 2ebe f73f 23bf 3d06 4abf bab8 ccbe
00000220: e4ed 02bf 1c63 0ebe 64be 073f c8fb babe
00000230: 973d 0dbf 69c0 b8be e9da 52bf 5589 a6be
00000240: afba b4bd daf6 2cbf 7720 c2be 4459 49be
00000250: 6c95 26be 69e5 08bf ea00 38be b4c8 97be
00000260: 5642 28bd 6c82 c33c aaaf 9fbe 3420 dcbe
00000270: c2e0 1cbe d291 cdbe 5840 f7bd 8baf e5be
00000280: 7dc7 47bd 9c69 94be 052c f0be bedc d6be
00000290: 4315 f5bd 73ca 35bf 8c84 edbe 781f b5be
000002a0: 3a62 b2be 7c47 56be fb11 ddbd 6f79 1a3e
000002b0: 54a2 babd 7d50 37be 3a3f f33e f570 98bc
000002c0: 1feb b1be 2466 36be 6fc7 9ebb a3b1 c9bd
000002d0: 38c3 1bbf b5a6 52be b3cf 70be 7794 48bf
000002e0: f6c3 b4be 1b53 95be bb54 d9bd 960f 0abe
000002f0: 2d37 a8bd 2a59 58be 15d2 37be df1b 2e3e
00000300: 3662 17be 402c 76bd e43e 0dbf df86 54be
00000310: 41d5 bfbe bf92 cbbe 0599 19bf 9528 3ebe
00000320: a90f 2b3f 9080 a23e 50d7 243d 59ee 54bf
00000330: 0c78 a83e 4f17 3cbe aed3 e53d 72cb 0cbf
00000340: ba5b 1bbf 220a 483e e932 99bc 553d 87be
00000350: cf72 fdba 7f58 9cbd 34b7 28bf c39d 35bd
00000360: 8153 18bf 30ab 02bf 8bde 9a3c faba 33be
00000370: 7adb 72bc 8627 fabe 7015 d4be 7099 11be
00000380: d4c6 08bf 40ef 37bd 834c b4be 7d00 4b3e
00000390: d8e4 47be 3fdf a7be 6599 03bf 49b3 1cbe
000003a0: 386e 0cbe 7681 8a3e 86ec 11bf 4df8 ff3e
000003b0: 2c1c 19be 9084 27bd 43e9 85be 169d 5cbe
000003c0: f565 4abe 33d3 6bbe c0e1 df3d 9da6 71be
000003d0: ee16 debe dca8 67be fcde 12be 5577 4ebf
000003e0: 3dee dcbd 8e8a 143d d995 a1be 30ba 7ebe
000003f0: 20e2 57be 2464 f1be da35 8bbe 3130 9fbe
-0.39020222 0.06238252 0.07807092 -0.5837246 -0.33179677 -0.112556 -0.29375565 0.08077284
-0.3102171 -0.26099667 0.2115087 -0.30860376 0.10589035 -0.076767966 -0.19660701 -0.13937068
-0.23378861 -0.2459322 -0.6400338 0.04336512 -0.23064534 -0.5930566 -0.21038997 -0.28744403
-0.22055228 -0.23239483 0.18720664 0.045712713 -0.410801 0.03978548 -0.91972315 -0.10436289
0.61971015 -0.25202692 0.76416856 -0.119214 -0.6156381 -0.16301553 -0.5212247 -0.77959615
-0.015183431 -0.16754898 -0.34861374 -0.13122751 -0.30046278 -0.32389995 -0.4427659 -0.74364805
-0.38674498 -0.47492713 -0.33895722 -0.2329129 -0.43318328 -0.31147024 -0.09787922 -0.49122694
-0.67454743 0.11876456 -0.42397925 -0.47073978 -0.20227103 0.2788704 -0.025018299 -0.35901156
0.027861701 -0.10499135 -0.7679507 -0.26633137 -0.67450637 -0.80127 0.1494103 -0.44884953
-0.1144529 -0.24720049 -0.2273226 0.005954186 -0.6238128 -0.22606005 -0.79560065 0.09984666
-0.2065947 -0.154207 0.3066255 -0.09808726 -0.38760492 -0.18792698 -0.27691823 -0.5485435
-0.2576959 0.10330282 -0.57206905 -0.36321563 0.045940362 -0.32367206 0.25350082 -0.050645757
-0.0824225 0.33367857 0.010655153 -0.18249363 0.113374084 -0.28677398 -0.19471592 -0.13364641
-0.42813385 -0.1715635 -0.40898952 0.33933684 -0.9735148 0.26483634 -0.6352355 -0.33216432
0.06903004 -0.23546073 -0.3679121 -0.23609184 -0.553938 -0.3498667 -0.4213756 -0.04451
0.19689944 -0.73134845 -0.23206575 -0.12744108 -0.14235246 0.016643522 -0.26192048 -0.313901
-0.06519753 -0.13256994 -0.072355054 -0.17004813 -0.17080395 -0.6376948 -0.7891577 -0.39984685
-0.5114424 -0.13904995 0.5302489 -0.3652022 -0.55172104 -0.36084297 -0.8236528 -0.3252665
-0.088246696 -0.67564166 -0.37915394 -0.19662958 -0.16267937 -0.5347505 -0.17969099 -0.29645312
-0.041078888 0.023865901 -0.3118871 -0.4299332 -0.15320113 -0.40150315 -0.120728195 -0.4486049
-0.04877423 -0.28986824 -0.46908584 -0.41965288 -0.11966946 -0.7101204 -0.46390188 -0.3537557
-0.34840566 -0.20925707 -0.10794445 0.15085386 -0.09112993 -0.17901798 0.47509176 -0.01860855
-0.34749696 -0.17812401 -0.0048455517 -0.09848335 -0.60844755 -0.20571406 -0.23516731 -0.7835154
-0.35305756 -0.29164967 -0.10611864 -0.13482508 -0.08213649 -0.21127763 -0.17951234 0.1700282
-0.14783558 -0.060100794 -0.5517409 -0.20754574 -0.37467387 -0.39760396 -0.59999114 -0.18570168
0.6682077 0.3173871 0.0402444 -0.8317619 0.32904088 -0.18368267 0.11222015 -0.5499793
-0.6068684 0.19535115 -0.018701034 -0.2641398 -0.0019336584 -0.07634067 -0.65904546 -0.044339906
-0.59502417 -0.5104246 0.018904945 -0.17551795 -0.014822835 -0.4885828 -0.41422606 -0.14218688
-0.5342839 -0.0449059 -0.35214624 0.19824405 -0.1952089 -0.3278751 -0.51405936 -0.15302767
-0.1371392 0.27051896 -0.5700153 0.49994126 -0.14952153 -0.040897906 -0.26154527 -0.21544299
-0.19765456 -0.23029785 0.1093173 -0.23598714 -0.4337687 -0.22623008 -0.14342874 -0.80650836
-0.10787628 0.03626495 -0.31559637 -0.24875712 -0.21082354 -0.47146714 -0.27189523 -0.31091455

fc2.weight f4 [256, 260]
00000000: 8a71 2fbe 671c dbbd 49fc 5bbd 101f b8bc
00000010: e837 0abe 2a98 18be b6b7 4dbd 99bb 0ebe
00000020: d916 05be 095b cabc 08af c2bd bde5 a6bd
00000030: 1c42 aebd b5b8 99be bb54 8dbd 02c1 4abe
00000040: 0142 a6bd 1c45 c63c 8973 7fbe 75d4 97be
00000050: 9bbc 503c d791 1bbd 773c 09be 905a d3bc
00000060: ff37 f13c a786 a03d 3864 9abd 3b3f a0bd
00000070: 90d6 d03b bba6 e4bd b5e3 f7bc f267 993b
00000080: c380 fbbc 6f71 afbe 1b44 e2bd fad1 30be
00000090: c411 e33c 8781 15bd 163b 12bd b1cb 93ba
000000a0: 150f 66bd 9ea0 62bc f4c0 143c d3b5 2fbc
000000b0: 5a97 17bb 9764 6eba f161 07bc fd42 cabe
000000c0: 530c d6bd fb1f 73bd aba3 6cbd 99e3 83bc
000000d0: be91 1cbd b32a 2dbd dc8e 0abd c6b8 22bc
000000e0: f6e4 ae3d 5142 babd b005 b9bd 530a 4e3c
000000f0: 75da cebc 3ed2 38bd c068 2f3d 076b 6ebe
00000100: 3d35 b7bd 82fc 45be 55cb acbd 68a7 0fbe
00000110: cf32 913c fe6e e7bd 9e0a 933b bdc9 2ebe
00000120: e2e0 8e3c a4c3 b6bb 179d 15bd a0b5 4dbd
00000130: fee9 b13c 194f b7bc b626 30be 0ced a33d
00000140: db18 55be 7f05 993c 9d28 72bc 803a 27be
00000150: 742b 58bd ffe2 7ebe 0493 84bd 348d b9bd
00000160: d417 453d f12f c0bd f08a e6bc 3eef a1bb
00000170: 832f 143b 8dcd 153d 3873 e0ba 24a8 37be
00000180: 58a3 d0bd 2977 e0bd 963b d0bd 7749 56bd
00000190: 3fd0 56bd ef23 d3bd ff32 58bd f574 e8bd
000001a0: e486 0bbd 9336 6fbd 91f4 94bc e7e2 97be
000001b0: b393 d7bd 56b5 a5bd 8c0c 22bd 6b19 5dbd
000001c0: 0c02 c2bd fbce 22be b8f9 0ebe f07e 97bd
000001d0: d33f 9a3d 2c66 48bd 52df b5bd d06c 11bd
000001e0: 5376 993c 857e b6bd 9d1d cabc 5220 c7bd
000001f0: db52 21be 74ee c1bd 4797 20be dd00 11be
00000200: 6705 e43d 9478 5ebc 87e1 f4bd 4121 54bd
00000210: 1e26 00be 7f83 113d 4c5c c0bd e589 a13d
00000220: 1f58 00be 8375 92be 89e4 08be b6a4 89bd
00000230: 05ae dcbc 4100 5fbe 333c 62bb c0ed aabd
00000240: ecfe f9bd 4aed f7bd 94e2 37bd 7456 983b
00000250: 6934 f2bd 0668 7fbe 130f d6bd d1c9 c33c
00000260: 890c 1bbd 63cb 0f3c c7b8 783c e915 6b3d
00000270: 07b2 3cbd 0a07 a5bc 11df 7abe af25 8fbd
00000280: 7f23 e2bc 6842 7e3d 0fd8 2abd abb8 1cbe
00000290: 5346 42bc b9ff c5bd 34d2 8dbb 7912 febd
000002a0: 7d06 3dbe 630b 90bd 39a3 313c 906b 523c
000002b0: b039 4bbc 4eee d13d 930d 92bd 415f b0bd
000002c0: 5331 a7bd 308b 473c 59cb d2bd c4c3 95bd
000002d0: 9e69 443c 7e78 53be be36 a1bd babc 1abd
000002e0: 1e8a 07be 5cbd 05be f302 423c 0151 abbd
000002f0: 1693 073d 7c7c 043c 2310 53bd 2006 24be
00000300: f578 38bd 3bad 37be 9ec3 e5bd 5893 84bb
00000310: fab0 57be 2498 fbbd 8887 12be 1476 a5bd
00000320: fe14 52bd 8fc5 173d 2983 11be 63aa 6fbc
00000330: a2d0 35bd 3ba5 57bc e1d6 ffbc af8d 17bd
00000340: 6004 8bbd afc4 00be c438 21be f1fa b8bc
00000350: b363 b7bd 1555 0d3d 12ca e03c 71bf 41be
00000360: fcb1 2fbd 5b51 d7bc 3f57 d3bd 94ef 30bd
00000370: ebe3 12bf 4355 cd3c 9d93 e83d 0523 9cbb
00000380: adc2 933d 728f ba3c fdce 0dbe e599 593d
00000390: fd44 84bd eeef bbbd 1a23 c2bd 8cf9 e3bc
000003a0: 2aa3 b7bc 96da 71bd 3269 86be 82e5 05be
000003b0: 944f a8bd d8c9 8dbd 02af 81be fb86 48be
000003c0: 180b 26be b822 37be 76b8 84be 63d5 10bd
000003d0: 05c7 1dbd 93ec 21bd 279c 29bd dc9a c7bd
000003e0: 884a 43bd d5a0 88bc 4a06 50be 3eb2 883b
000003f0: 955a 00bd 0342 a7bd 3554 c5be 29c6 473d
-0.17133155 -0.10698777 -0.053707395 -0.02247575 -0.13497889 -0.14901796 -0.05022403 -0.1393875
-0.12996997 -0.024701612 -0.09506041 -0.08149288 -0.08508703 -0.30023733 -0.06900927 -0.19800189
-0.08118058 0.024202876 -0.24946417 -0.2965428 0.01274028 -0.03798088 -0.13401972 -0.02580002
0.029445646 0.07838183 -0.075386465 -0.0782456 0.006373234 -0.11164614 -0.030259946 0.0046815807
-0.030701047 -0.3426623 -0.11048146 -0.172676 0.027718432 -0.03650048 -0.03570088 -0.0011275915
-0.056166727 -0.013832239 0.009079207 -0.010724503 -0.0023130984 -0.00090939685 -0.008263097 -0.39504233
-0.104515694 -0.05935667 -0.057773273 -0.016099738 -0.038224928 -0.04227705 -0.033827648 -0.009931749
0.085397646 -0.0909468 -0.09034288 0.012575704 -0.025250653 -0.045122378 0.042824507 -0.23283015
-0.08945701 -0.19334605 -0.0843722 -0.14028704 0.017724423 -0.11300467 0.0044873497 -0.17069145
0.017441217 -0.0055775214 -0.036526766 -0.05022204 0.021718021 -0.022376584 -0.17202267 0.080041975
-0.20810263 0.018679379 -0.014780191 -0.1633091 -0.052775815 -0.2489128 -0.064733535 -0.090601355
0.048118427 -0.09384144 -0.028142422 -0.00494185 0.0022611327 0.03657298 -0.0017124182 -0.17935234
-0.10187405 -0.10960228 -0.10167615 -0.052316155 -0.052444693 -0.10309588 -0.05278301 -0.11350433
-0.03406419 -0.058401655 -0.018183025 -0.296653 -0.10526218 -0.08091228 -0.039562747 -0.05397932
-0.09473047 -0.1589927 -0.13962448 -0.07397258 0.07531705 -0.048925564 -0.088804856 -0.035504162
0.01873318 -0.089108504 -0.024672324 -0.097229615 -0.15754263 -0.094693094 -0.15682708 -0.14160486
0.11133843 -0.013578553 -0.119570784 -0.051789526 -0.1251454 0.035525795 -0.09392604 0.078876294
-0.12533616 -0.2860528 -0.13368429 -0.06720869 -0.026938448 -0.2177744 -0.0034520745 -0.083461285
-0.122068256 -0.12105806 -0.044893816 0.004648978 -0.11826403 -0.24942026 -0.10452094 0.023899944
-0.03785375 0.0087765185 0.015180773 0.057393942 -0.046068218 -0.020144958 -0.24499156 -0.069896095
-0.027604816 0.06207505 -0.041709956 -0.1530482 -0.011857587 -0.09667916 -0.0043280367 -0.12405867
-0.18459506 -0.07033422 0.010842138 0.012843028 -0.0124038905 0.10250531 -0.07131495 -0.08611918
-0.08163705 0.012179181 -0.10292692 -0.0731273 0.011988072 -0.20651433 -0.07871769 -0.03777764
-0.13236281 -0.13060516 0.011841523 -0.0836506 0.033099256 0.00808632 -0.05152906 -0.16017962
-0.04503723 -0.17937176 -0.11218952 -0.004045885 -0.21063605 -0.12284878 -0.14309514 -0.08079162
-0.05128955 0.03705364 -0.1421019 -0.014628026 -0.04438842 -0.013161953 -0.031230392 -0.037000354
-0.06787944 -0.12575029 -0.1574431 -0.022580596 -0.08954563 0.03450497 0.027440105 -0.18920685
-0.04289435 -0.02628391 -0.10319375 -0.04319723 -0.57379025 0.02506507 0.1135628 -0.004764917
0.07214866 0.022773478 -0.13848491 0.05312528 -0.06458471 -0.09176622 -0.09479351 -0.027828954
-0.02241667 -0.05904635 -0.26252133 -0.13075832 -0.08218303 -0.06923264 -0.25328833 -0.19582741
-0.1621517 -0.17884338 -0.25921983 -0.03535975 -0.038519878 -0.039532255 -0.041408684 -0.09746334
-0.0476785 -0.016678253 -0.20314899 0.0041716387 -0.031336386 -0.081668876 -0.38540807 0.048772965

fc2.bias f4 [256]
00000000: b4c6 8abe 5a43 ddbd 8bf8 9abe 65c5 f2bd
00000010: 84b4 bebe 07b4 24bd b0ec 0cbe e766 e7bd
00000020: b8c9 c3bd 25f0 7bbe 0c73 edbd 4ea1 2bbe
00000030: 8761 2cbe 45d4 b0be c005 b7bd 9582 bb3d
00000040: 79fa d4bd 4d8b cbbd 52ed a8bd 93a6 a1be
00000050: df0d 72be c4f0 a9bd 923f debd 61eb 5abd
00000060: 72be 9c3e d310 23be 55c0 26be 984a 12be
00000070: 43b7 06be 1dee c8bd 3aab b0be b1f2 cbbe
00000080: 08a6 f8bd 22a6 963d 5ccc a4be ddde 51bd
00000090: 1052 01be 1bed 9cbe d99a 02bf bff8 07bf
000000a0: 3229 e1bd 9697 99be 8dd3 f9bd 9710 87be
000000b0: 5571 87bd 1a0e abbd abe4 0ebf bb59 56bd
000000c0: d35a c7bd 1aaf 1fbe d519 61be f9a5 823d
000000d0: 89f4 bf3d ebf1 5fbe bd95 5cbd 0c55 cbbe
000000e0: 4054 98be 3bc8 afbd a24a a6be 3346 96be
000000f0: efa0 bbbc 7718 63be 1ca0 a9bc 6759 48be
00000100: 0b84 c43d 86da c3be 5a63 60bd 4f37 0a3e
00000110: 2a4b 16bf 8f5f e0bd 2b1c 0abe a126 08be
00000120: d8de 92be 7895 0abe 87ff c5bd 5ca4 923e
00000130: 174b 04be db5c e1bd 281e 75bd 70ea 98bd
00000140: e639 16be 534f aabe 7d82 1bbe 8069 433f
00000150: 5920 1bbe cb9c 14be 7eb2 b3bd cf96 a2be
00000160: 0db3 52be b54e ffbc 21b9 93be 54a2 16be
00000170: bf75 61be 5baf efbc f9c0 3b3e f077 603e
00000180: b85e 1dbe 2a47 d8bd 935b 0dbe fee4 17be
00000190: 6277 0abe 3883 e13c 00c4 c33d e81f c8bd
000001a0: 00b3 03be d5e2 17bd a475 2cbe 43d5 7ebe
000001b0: 2aef 22be 7f43 88bd 0b70 bbbe 32ef 24be
000001c0: 771a a23e 7362 62be 9918 e7bd 6a35 e8bd
000001d0: fb08 0abe 3270 13be 338a 0cbc 023f 13be
000001e0: cd95 8ebd 87e0 09be 1fa6 a33e df2f 2dbe
000001f0: ccad 21be 32a1 fcbd baca 9f3d b70c 283d
00000200: c7f7 c03c ad6e ecbd 5ad7 bfbd 3c58 573f
00000210: 9fd4 cabe ada1 e6bd 38dd 5bbd 9543 1ebf
00000220: 3bbc c7be 883f 38be 1c42 afbd ef0a 4bbe
00000230: 6d5d 66be 8d5d 83bd 646d 05be d214 c1bd
00000240: 7d97 2cbe aa39 02bf 693c afbe 5ad3 13bd
00000250: e94b 0ebe 5056 55be 078f 07bf dc3c b2be
00000260: 983e 91be 8f78 f2bd 6645 96bd cdab febd
00000270: 4fa8 71be 6af7 c6be 078c bfbd b2af 0fbd
00000280: c618 71be c5d1 86be a6f3 6a3d 4210 06be
00000290: 934b 13be faed 40be 7caf 11be 92ec 8dbe
000002a0: 6fa6 eabd 610d a0be 7587 04be ab1b abbd
000002b0: 6bed 12be 8ca1 9ebd acfe ddbe e8dd 62be
000002c0: c9cd 8fbd 3c7e e8bd bd33 bfbd 737a 9bbd
000002d0: 9c72 d03e 21bd 123d 1f0e 9bbd 4e6a 2cbe
000002e0: 25e3 19be c6a8 883d 6efa 28be e858 2ebe
000002f0: a96c 8d3d 99c8 76be 3725 55be 3a96 77be
00000300: 1ec0 87bd ce38 10be 6c30 41be c00d 62bd
00000310: 8bd4 2dbe 0124 8bbe f00e 56be 3db3 b13e
00000320: 6986 5d3d fee5 7cbe db19 4cbe 333e 34be
00000330: d96f 0abe 1d42 80bd e33c a8be 365f d1bd
00000340: fbe5 01be b49d 55be 7945 733d 027b a4be
00000350: 07da e8bd a411 833e 241a 61be b831 dbbd
00000360: 6a04 e6be d76a 283e 6e8d abbe a166 0cbf
00000370: 3fa2 35be b6af 2bbe f2d2 02be 3dc7 96be
00000380: d7fe 94bd ef3a 81bd ab7a 23be 5aa6 edbe
00000390: 53cd f0bd b0ca 25be aa76 efbe 9ba5 8dbe
000003a0: 3d37 11be 13d7 63bd 537c 35be 5364 30be
000003b0: 5c55 adbd 65e3 3cbe fd6e f5be 05a8 1abe
000003c0: 7d33 6d3e c741 1b3d 54bb 05be 4793 25be
000003d0: c616 b2be 852a 2cbe fe02 12bf e45b 3ebe
000003e0: 3c57 ebbd 48e4 fdbe 01de 76bd 96da d6bc
000003f0: 8c99 1bbd cf81 f6bd 383a a73d 33b2 93bd
-0.27104723 -0.10803862 -0.30267748 -0.11854056 -0.37247097 -0.04021075 -0.13762164 -0.11298924
-0.09559959 -0.24603327 -0.11594209 -0.16760752 -0.16834079 -0.3453695 -0.089366436 0.09155766
-0.10399336 -0.09938679 -0.0824839 -0.315724 -0.23638104 -0.082978755 -0.10851969 -0.05344713
0.30614048 -0.15924387 -0.16284306 -0.14286268 -0.13155846 -0.098110415 -0.34505635 -0.39833596
-0.12141043 0.07355906 -0.32187164 -0.05123793 -0.1262896 -0.30649647 -0.5101753 -0.5311393
-0.109941855 -0.29998463 -0.12198553 -0.26379845 -0.06613413 -0.08352299 -0.5581767 -0.052331667
-0.0973412 -0.1559414 -0.2198251 0.06379313 0.09372813 -0.21869628 -0.05385374 -0.39713323
-0.29751778 -0.08583113 -0.32478815 -0.29350433 -0.022903888 -0.22177301 -0.020706229 -0.19565354
0.09595498 -0.38252658 -0.05478225 0.13497661 -0.5870844 -0.10955726 -0.13487308 -0.13295986
-0.2868564 -0.1353358 -0.096678786 0.2864102 -0.1291927 -0.11004039 -0.059843212 -0.074665904
-0.14670524 -0.33263645 -0.15186496 0.76332855 -0.15149058 -0.14512937 -0.08774279 -0.31755683
-0.20576115 -0.03116546 -0.2885218 -0.14710361 -0.22017573 -0.02925842 0.18335332 0.21920753
-0.15368164 -0.105604485 -0.13804464 -0.14833447 -0.13522103 0.02752839 0.095588684 -0.09771711
-0.12861252 -0.03708156 -0.16841751 -0.2488604 -0.15911546 -0.06653499 -0.3660892 -0.16106871
0.31660816 -0.22107868 -0.112839885 -0.11338313 -0.13479988 -0.14398268 -0.008577871 -0.14379504
-0.06962166 -0.13464557 0.31962678 -0.16912793 -0.15788954 -0.12335433 0.07802339 0.04102775
0.02355565 -0.11544547 -0.09367247 0.8411901 -0.39615342 -0.11261306 -0.053677768 -0.6182187
-0.39010796 -0.17992985 -0.08557531 -0.1982839 -0.22496577 -0.06414328 -0.1303001 -0.09427799
-0.16854663 -0.5086924 -0.34225777 -0.036090232 -0.13896145 -0.20833707 -0.5295262 -0.34812057
-0.28368068 -0.11839401 -0.073374555 -0.12435112 -0.23599361 -0.38860637 -0.0935288 -0.035079665
-0.23544607 -0.26331916 0.057361268 -0.1309214 -0.14384298 -0.18840781 -0.14227098 -0.2771955
-0.11457526 -0.31260207 -0.12942298 -0.083548866 -0.1434838 -0.07745656 -0.43358362 -0.22154963
-0.07021672 -0.11352202 -0.0933604 -0.07591715 0.4071244 0.0358249 -0.07571053 -0.16837427
-0.15028055 0.06672816 -0.16501781 -0.17026103 0.06905491 -0.2409996 -0.20814978 -0.241784
-0.0662844 -0.1408417 -0.18866128 -0.055188894 -0.1697561 -0.27175906 -0.20904136 0.3470706
0.05408326 -0.2469711 -0.19931738 -0.17601852 -0.13519229 -0.0626261 -0.32858953 -0.10223238
-0.12685387 -0.2086094 0.059392426 -0.32125098 -0.113697104 0.25599396 -0.21982628 -0.107028425
-0.44925243 0.16447006 -0.3350634 -0.548441 -0.17737673 -0.16766247 -0.12775782 -0.29448882
-0.07275169 -0.06310069 -0.15964763 -0.4641598 -0.117579125 -0.161906 -0.4677022 -0.2766541
-0.14181228 -0.055625033 -0.17723207 -0.1722577 -0.08463547 -0.18446119 -0.4793624 -0.15103157
0.23164172 0.037904527 -0.13059741 -0.16169463 -0.34783 -0.16813095 -0.57035816 -0.18589741
-0.11491248 -0.49588227 -0.060270313 -0.026227277 -0.03798823 -0.12036478 0.08165401 -0.07211723

fc3.weight f4 [1, 256]
00000000: 5b5d 2bbc debb 94bb 5223 b93c 37d5 b8bc
00000010: b42e 9cbb 4ddc 153b c650 0fbc d0b7 073c
00000020: ee6e 153c 0deb c5bc 4b9e 0e3c 797b 7abb
00000030: 3e38 aa3c ebb4 41bc d84d 143d 487c 8fbd
00000040: 31ef bbbc 41d3 4abc cbba b1bb 771e 88bc
00000050: 2e43 abbb 0735 3fbc ed81 0f3c 0d5a 023d
00000060: cb7f 0a3c 8979 bfbb 5b06 96bb afa4 99bd
00000070: 932f 26bc 186e 023b 136d fcbd 2141 80bc
00000080: 54eb 09bd 1573 a2bb f14c c5bb 489c 83bc
00000090: 8b40 363c ea5c cc3c e212 f4bb 2090 18bc
000000a0: 6dbc 9e3c 35af 38bd bb47 fe3c 8454 8ebb
000000b0: baaf d9bc 2fde a43c ce1c 81bb b17f 37ba
000000c0: ee5b 85bb 6290 bb3c 375d 71bb d847 023c
000000d0: 6bec 693b 11da 953c 96e7 a13c 9fa5 5bbc
000000e0: 0190 72bb 8120 433c 55bb dfbc 7dfb f9bc
000000f0: 94d1 fdbb ee19 cbbc 2b69 1a3c 360c 623d
00000100: b844 adbb 74a1 b2bb 1900 513c 18c2 4c3c
00000110: 98e8 4dbc bb46 2c3c a729 53bb 0560 51bc
00000120: efae 7f3c ed8e aebb f6c8 39bc c1cb a73b
00000130: 3b5a c43b 973a 823c 6fde deb9 0284 ed3b
00000140: f05d a8bb ff05 983c 91ba 073c 634b f33b
00000150: d6bc 313c b113 253c 0420 3d3c 7f3f 99bc
00000160: f099 9ebb 1514 1abb adb0 e63a 0cac 4e3c
00000170: d315 d83b 895c 16bc 6431 d23b 96a7 00bc
00000180: e13f 5dbc 6acc 3abc b6f2 8b3c d632 313b
00000190: 6b43 503c 5418 063c ca06 13bc 4e47 1f3c
000001a0: f436 593d dfe9 78bb 8328 723c 6e6d 55bc
000001b0: e5dc 523d f092 b7bc 7fa1 0cbd 22b2 e2bb
000001c0: 5dac 1e3c 77f2 453c 20c1 323c bcd4 913b
000001d0: 0911 b13b 4668 8a3c 30c4 3cbb 08f2 1fbc
000001e0: fa79 153c 8228 d03c 21ec 6abb 4283 a0bb
000001f0: b340 80bb 5750 473c dfb4 ad3b 8898 153c
00000200: 02a9 aabc d1c4 b0bc 1d11 c83c 40f6 513c
00000210: b604 52bc 408b 3fbc f939 7cbc 680f 53bc
00000220: 1ac1 5a3c 84df 003b ba7a 27bc 1891 02bc
00000230: 239b 4e3b 7a3d 9e3c 9576 e2ba b6dc de3c
00000240: 72fc 17bc 4262 c2bb 9a70 983c 1a4a 4cbc
00000250: 9d29 ef3c d7c8 11bc 0c02 61bc cdbc eebb
00000260: 75a4 b43c 9dfe c43c 1682 993b 2572 18bb
00000270: 7611 d03c 3c75 d43c 20f8 17bd 8a14 843c
00000280: 7a81 2a3c 0f3e e13c be79 94bb 17de 083c
00000290: 8913 e93c 1102 273c 8917 313b e296 76bc
000002a0: 7640 a0bb d517 8cbc 51aa 753c 1e88 83bc
000002b0: d273 55bb f649 31bc e452 96bc 5a6f b2bc
000002c0: 9e4c 583c 40be 78bc 1815 3ebc b85d 6dbc
000002d0: 4b31 233c c974 d43c 71f3 05bc 60bb 65bc
000002e0: 1369 99bc 8c1b abbb 769b 383c 3d8c 46bc
000002f0: 980a 003c 6f03 e43b 0934 7cbc a5de f8bb
00000300: f9f2 38bc b1a4 ce3c bca9 f5bb b518 1abd
00000310: d9b0 a53c c878 8f3c 3d20 b13c d68b bf3b
00000320: a5e9 0b3c d8ff 04bc 5e2c 65bc d789 7bbc
00000330: 6341 db3c 3d52 51bc fd67 28bc 6370 af3b
00000340: 04df dfbc ad5c a0bb 5090 b9bb 9fd6 1bbc
00000350: d906 553c 342e e43b f5a6 75bc 3c75 553b
00000360: b9e3 e7bb ee33 243c b203 98bc c619 b3bb
00000370: 5ee8 013d 5758 d1ba ba99 85bb 2d06 46bc
00000380: 6138 84bc 71ed a8bc 7305 02bc dbba 62bc
00000390: 75ad 913c b65d a7bb dbf7 d73b a57b 07bc
000003a0: 0f41 013c 792f a13c 94f2 963a 4d97 bebc
000003b0: a783 88bc 88f6 643d 4dfd 15bd 7015 9dbc
000003c0: aff6 333c cc7f 33bc 1b97 a73c d367 bf3c
000003d0: d863 aa3b 8f1a 4b3c 9280 d5bb bff3 24bc
000003e0: 7ace ba3a 234d 88bc 7f38 8a3c 5fdc 063d
000003f0: 3693 9a3c 55db bf3c 7677 233c b778 c8bc
-0.010459269 -0.004538997 0.02259985 -0.022562606 -0.0047663096 0.0022866905 -0.008747285 0.00828357
0.009120686 -0.024159933 0.008704732 -0.0038220568 0.020778771 -0.011822919 0.03620705 -0.07006127
-0.022941204 -0.012379468 -0.005423879 -0.01661609 -0.0052265143 -0.011670358 0.008759004 0.03182416
0.00845332 -0.0058433455 -0.0045783943 -0.07502114 -0.0101431785 0.0019902047 -0.12325492 -0.015656056
-0.033671692 -0.0049575665 -0.006021135 -0.016065732 0.011123787 0.024946649 -0.00744854 -0.009311706
0.019376958 -0.045088965 0.031040063 -0.004343571 -0.02657305 0.020125477 -0.0039402014 -0.00069999235
-0.0040697968 0.022895996 -0.0036829242 0.007951699 0.0035693895 0.018292459 0.01976375 -0.013406186
-0.0037012103 0.011909605 -0.027311007 -0.030515427 -0.007745931 -0.024792638 0.009424488 0.055187427
-0.005287733 -0.0054513756 0.012756371 0.012497447 -0.012567662 0.01051491 -0.0032220872 -0.0127792405
0.015605672 -0.0053270967 -0.011339417 0.005120725 0.0059922016 0.015897078 -0.00042508866 0.0072484026
-0.0051381513 0.018557547 0.008284227 0.0074247583 0.010848245 0.010075496 0.011543278 -0.018707035
-0.004840128 -0.0023510505 0.0017600261 0.012614261 0.0065943985 -0.009177336 0.006414579 -0.007852456
-0.013503999 -0.011401275 0.017083507 0.0027038357 0.012711386 0.008184511 -0.008973787 0.00972159
0.053030923 -0.0037981195 0.014780167 -0.013026578 0.051480193 -0.022408932 -0.034333702 -0.0069182077
0.009684649 0.012081734 0.010910302 0.0044504087 0.005403642 0.016895425 -0.002880346 -0.009762295
0.00912332 0.02540994 -0.003584631 -0.0048984597 -0.0039139627 0.012165151 0.0053011025 0.009130605
-0.020832542 -0.021578224 0.024422223 0.012815058 -0.012818506 -0.011690915 -0.015394681 -0.012882091
0.013351703 0.0019664476 -0.010222131 -0.007969163 0.0031525574 0.019316424 -0.0017277772 0.027204853
-0.009276496 -0.0059321234 0.01860838 -0.012468839 0.029194647 -0.008897982 -0.013733398 -0.0072856904
0.022051075 0.02404719 0.004684697 -0.0023261395 0.025398951 0.025934808 -0.037101865 0.016123075
0.010406846 0.027495412 -0.0045311144 0.008353732 0.028451698 0.010193364 0.0027022085 -0.015050622
-0.004890497 -0.017101208 0.01499422 -0.016056117 -0.0032570255 -0.010820856 -0.018350072 -0.021781612
0.013201861 -0.015182078 -0.011601709 -0.014487676 0.009960483 0.025934594 -0.008175717 -0.014021724
-0.018726861 -0.0052217897 0.0112675335 -0.012118396 0.007815026 0.006958417 -0.0153932655 -0.0075949007
-0.011288398 0.025225015 -0.0074970406 -0.03762122 0.02022593 0.017513648 0.021621818 0.005845527
0.008539592 -0.0081176385 -0.013987629 -0.015352688 0.026764577 -0.012775955 -0.010278699 0.0053539737
-0.027328022 -0.0048938603 -0.0056629553 -0.009511619 0.013002121 0.0069635157 -0.014993419 0.0032571098
-0.007076707 0.010022147 -0.01855645 -0.005465719 0.031715743 -0.0015971762 -0.0040771635 -0.012086433
-0.016140165 -0.020621033 -0.0079358695 -0.013838495 0.017782906 -0.0051076068 0.006590826 -0.008269225
0.007889046 0.019675957 0.0011516386 -0.023265505 -0.01666434 0.055899173 -0.03661852 -0.019175261
0.010984107 -0.010955762 0.020457795 0.023364937 0.0051998906 0.012396469 -0.006515571 -0.010067879
0.0014252209 -0.016638344 0.016872643 0.032925006 0.018869024 0.023420015 0.009977212 -0.024471624
