p3_collab-compet/assets/checkpoint_actor_1.pth (torch_old, 80889 bytes, 6 tensors)

fc1.weight f4 [128, 24]
00000000: 4184 0abe cabd a4be a344 0ebe 055d 19be
00000010: b7a1 df3e 4f8c 0f3f c1d1 1bbe 8996 6fbe
00000020: 60b5 24bd d9f8 a5be cd99 1f3e fef8 c33b
00000030: 66f9 283f c2e1 093f edc7 e63c edb1 1f3c
00000040: 36dd 7ebc 7d29 18bd 2931 553e ea18 f33d
00000050: 3f41 363f 1bf3 373e 8f2f 8d3e bf47 073e
00000060: ea14 313d fa4b 12be 2993 2cbe d246 b3be
00000070: 5d98 6d3e 4c34 48bf fb10 b0bd dc21 b9be
00000080: c767 0f3d 9d99 29be 4536 3b3e aa30 1cbf
00000090: 64db e03e e9ce a5bf b93d a73d 34ad 1dbf
000000a0: 1df6 5fbd 6712 16be 1251 923d 9d14 9abe
000000b0: 2b45 b33e e85a d1bf 4c37 80bd 6104 d0be
000000c0: 2ced 79be 140f 243e 7a97 d2bd e072 963b
000000d0: 662c a33e c5fe 423e e97f 14be 127b a2bd
000000e0: 204b 91bd 71d2 fa3d c2fe 203d 4898 13be
000000f0: 6479 883f cca2 203e 2f6f d2bc baa0 30be
00000100: 0a0f 2ebe 52c7 8d3d 1202 4bbe 3ea3 5e3e
00000110: 775a 0240 729b b53e f388 01be 9523 963e
00000120: 0f16 0d3e 4ef1 11bf a4af f1bb 23cc 533f
00000130: 741d 923e c86c debe 7e38 30be 2166 473f
00000140: 5d12 243e 6a48 09bf 40b6 e3be c965 363e
00000150: 2017 a93e 01aa e7be e4c1 d2be bcb2 ad3e
00000160: 8438 563e e8f7 91be 562f 5d3e b5c6 e43e
00000170: f75b ca3e 7c1a 00bf c4cb 6f3e 97bf 053f
00000180: 3518 0e3f 6052 3d3f 5d3f debc 7ff2 173e
00000190: 404b 3a3e 5fa6 bd3e 1abc 46be 4252 723d
000001a0: 2f13 093f 453f 243f 0463 8c3e 6174 1dbf
000001b0: 71d5 69bd a5dd a43e 7654 923e b18b 28bf
000001c0: 3741 063f d93e f03e cc3f 04bd d7bd afbe
000001d0: 27a4 66be 0b95 323d 3128 daba a3f6 88be
000001e0: bea2 c03e dee6 f9bd d742 5b3e 5839 f2bd
000001f0: f9c1 83be 30d8 36be 4f6f 0d3e 1504 4cbb
00000200: d02d 293e 059b 45be 0340 09bd c2c1 383d
00000210: f908 0fbe d616 90bf 30be ce3d c968 0c3d
00000220: d0b7 8dbc 3062 9abe 4b4e 7e3d 53fa 4f3d
00000230: 38fe 05be 7e93 08c0 12ea b93d bd2c c13d
00000240: 7745 a73d 6162 56bf 8e19 503c 92fb 163d
00000250: f26d d4be 2774 6b3e 76cb 0bbc 5b38 e73d
00000260: f6ef b03e 4ba0 dabe f8c3 94be 8d20 f03e
00000270: 3f26 ffbd 0230 293e b20c 34be 9533 c63e
00000280: f785 a63e 4aaa 15be d2f5 afbd 6cb9 f03e
00000290: 8be3 01be fc92 343d 3ae2 c0bd 1e66 f53e
000002a0: 26fe d13c 7a2d 5ebe d03c b7bd e833 77bf
000002b0: a2c5 9abe 5646 723e 62cf e1bd aa0f 7dbf
000002c0: fd32 b03c cce0 64be 851e a3bd 5902 2dbf
000002d0: e90f 3dbe 7746 653d e117 b1bd 0c79 42bf
000002e0: ecc9 8f3d 6940 95be 565a 67be c8de f1be
000002f0: 8ca4 babd 96e9 25be 39df 97be 9c55 02bf
00000300: a434 db3d 9702 51bf 702c 1ebe 64b4 113f
00000310: 4de8 15bf ace7 2cbe b80f a3be 6c8a 233f
00000320: 0b1f db3e ace8 12bf 5ff5 023e 968b 0d3f
00000330: 1aef dabe 41db dbbe 7c9e 3d3d 0ad3 d13e
00000340: a3db 0c3f 9c95 16bf 626d 643d 4a52 babe
00000350: 2af9 95be e793 66be 9633 94bc 1217 9bbe
00000360: 3e15 b5be 5291 7b3e 9aad 36bd 4d5e 89be
00000370: 72c5 143d b20c d3be f17c aebc c7d1 11be
00000380: 3a60 b0be 33f2 843e 6273 ad3d 77eb bc3d
00000390: 0462 7f3d 0566 59bf 1fc2 f23d 9dce 00bd
000003a0: 98af 9dbe 7702 d23e fc0c e53b e0b1 1ebe
000003b0: 3c05 8c3e a972 b0bf a980 363a 01ea 83bd
000003c0: 57c4 f23d ea24 7ebe ffc1 203c 6046 b1be
000003d0: af5f 48bd 3a2a 273f 8762 49bd b0e8 debe
000003e0: 2dfa 0a3e a3bc d3be cf87 cfbd 3b7e d4be
000003f0: 23fb 513d 8baa 183f 5369 64bd 894c bbbe
-0.13527013 -0.32176048 -0.1389337 -0.1497689 0.43678066 0.5607347 -0.15216734 -0.23397268
-0.040212035 -0.32416418 0.15586014 0.00598061 0.6600555 0.53860104 0.028171504 0.009747011
-0.0155556705 -0.03714894 0.20819534 0.11869986 0.7119331 0.17963831 0.27575347 0.13210963
0.043232836 -0.14286795 -0.16853012 -0.3501497 0.23202653 -0.782048 -0.08596989 -0.36158645
0.03501108 -0.16562505 0.18282421 -0.61011755 0.43917382 -1.2953769 0.081660695 -0.6159241
-0.05467807 -0.14655457 0.07144369 -0.30093852 0.35013708 -1.6355867 -0.06260547 -0.4062834
-0.2440688 0.16021377 -0.10282798 0.004591331 0.3186981 0.190425 -0.14501919 -0.0793363
-0.07094407 0.1224717 0.039305456 -0.1441356 1.0662045 0.15687102 -0.025687782 -0.17248812
-0.16997924 0.06922783 -0.19825009 0.2174196 2.0367715 0.35470158 -0.12649898 0.29324022
0.13777946 -0.57008827 -0.0073756743 0.8273336 0.28538096 -0.43442369 -0.1720905 0.7789021
0.1602263 -0.5362612 -0.44474983 0.17812265 0.33025455 -0.4524689 -0.41163552 0.33925426
0.20919997 -0.2850945 0.21600088 0.4468285 0.3952329 -0.5004041 0.23417574 0.5224547
0.55505687 0.7395382 -0.027129823 0.14838599 0.18192768 0.37040994 -0.19407693 0.05916048
0.53544897 0.6415904 0.27419293 -0.61505705 -0.05708832 0.3220035 0.28580064 -0.6583815
0.5244326 0.4692295 -0.032287404 -0.34324524 -0.22523557 0.04359917 -0.0016644058 -0.2675067
0.37624162 -0.122022375 0.21412216 -0.11827344 -0.25733927 -0.17855906 0.13811992 -0.0031130363
0.16521382 -0.19297417 -0.033508312 0.045106657 -0.13968267 -1.1256969 0.10094869 0.03427962
-0.017299563 -0.30153036 0.062086385 0.050775837 -0.13085258 -2.1340022 0.090778485 0.09432361
0.08167546 -0.83743864 0.012701405 0.03686101 -0.41490132 0.22993527 -0.008532396 0.11290046
0.34558076 -0.4270042 -0.29055762 0.46899834 -0.12458467 0.1652222 -0.17582968 0.3871123
0.32524082 -0.14615741 -0.085918084 0.47016466 -0.12684457 0.044085488 -0.09418149 0.47929472
0.025633883 -0.21697035 -0.08947146 -0.9656358 -0.30228907 0.23659644 -0.11025883 -0.98852026
0.021508688 -0.22351378 -0.079648055 -0.6758171 -0.184631 0.055975404 -0.08647133 -0.7596595
0.070209354 -0.29150704 -0.22593054 -0.4724028 -0.09113416 -0.16202387 -0.29662493 -0.5091188
0.107034 -0.81644577 -0.15446639 0.5691588 -0.5855759 -0.16885251 -0.3184793 0.6388309
0.4279712 -0.5738628 0.12788914 0.55291116 -0.42760545 -0.42940715 0.04629372 0.40981323
0.5502264 -0.58822036 0.055768378 -0.36390907 -0.2929166 -0.22517358 -0.018091004 -0.3029104
-0.3536777 0.24567154 -0.044599153 -0.26829758 0.03632111 -0.41220623 -0.021299811 -0.1424018
-0.34448415 0.25966033 0.08469273 0.09224599 0.062349334 -0.84921294 0.11853432 -0.03144704
-0.3079803 0.41017506 0.0069900732 -0.15497541 0.27347744 -1.3784992 0.0006961921 -0.06441117
0.11853855 -0.24818769 0.009811877 -0.34624004 -0.048919376 0.6529881 -0.04916623 -0.435369
0.13571997 -0.41354856 -0.10133325 -0.41502556 0.051264893 0.5963523 -0.055764508 -0.3658183

fc1.bias f4 [128]
00000000: 23b3 283e 0727 303d 8c7e 66be 4b9e debd
00000010: 9c50 8fbd 8f99 7bbd babe aebe db55 a5be
00000020: dc73 07be 7f15 8b3e 7eed 93be 1e5c e0bd
00000030: da62 82bc 0072 7d3c 7637 d4bd cc06 edbd
00000040: 9779 8dbe 764d 9bbe f220 90be 9933 613e
00000050: 565b 1b3e 1ca8 3fbe 1a40 febd 9549 5dbe
00000060: 9042 d6be bf0d f6bd 2330 31bf a243 6fbe
00000070: 723c c2be e6ee 50be 57f4 96bd f97e 99be
00000080: 1b7d 90bd cede 4cbe f415 bcbe e6b7 73bd
00000090: a474 ed3d d53d 9fbe f7ad 47be e355 07bf
000000a0: bb76 73bd d0ea b6be 5ecf e3bd d8c3 89be
000000b0: 6e9b 753e 0479 a4bd ca73 36be 6550 31be
000000c0: f6d1 043f 5b5d 6bbe 3608 ddbe 3418 43be
000000d0: 8c37 c13e 5869 c5be b7cf afbe 8bbd 46be
000000e0: 91f2 40be 67c2 4a3e 2d08 02bf 04e9 a4bd
000000f0: 8859 adbd 9228 10be 202e 5cbe a054 7bba
00000100: 6e30 aebc 762e bfbe cfe6 7cbe a19d afbd
00000110: 5652 f9be b498 26be 0a21 96bc b119 11bf
00000120: 0831 03bd f739 c2be 3973 71be 42a4 a23e
00000130: 40d6 5abe d6f9 c1be 12d4 bcbe df66 6b3e
00000140: 955d 9fbe cc41 0fbf 642d 613e 73b6 0fbf
00000150: 1762 0cbe 7b3e 16be 245d 02bf abd1 84be
00000160: e719 a13d 4787 02be 27ba 85be b120 91bd
00000170: 0df7 d2bd 0d0f 823d 647e c1bd 75ee c2be
00000180: a3b8 48bd 9c19 783e ff4c 5cbe 17c5 bcbd
00000190: ccb2 fa3d 6317 7abe 58ff 9dbe f7ff aabe
000001a0: 8666 573e b0cf 5fbd 6391 1ebf 9317 1fbf
000001b0: 37d7 0ebf 4cce 203d 7467 a7be fdbe 853e
000001c0: c34d f63d aa12 3fbe c14e b0be a02a a4be
000001d0: 7390 94be a0f7 77be e1dc 61be 9d1b c1be
000001e0: 30b3 9b3d e352 00be d652 b33d 93dc febc
000001f0: 2ce9 6fbe 6d81 c2be 8f32 73bd 64b6 aebe
0.16474585 0.04300597 -0.22509211 -0.10870036 -0.06997797 -0.06142574 -0.34129888 -0.32292065
-0.1322779 0.27164838 -0.2889213 -0.1095507 -0.015916277 0.015469074 -0.10362141 -0.11573562
-0.27631828 -0.30332536 -0.28150135 0.21992339 0.1517156 -0.18716472 -0.1241457 -0.216101
-0.41847658 -0.120143406 -0.69214076 -0.23365644 -0.3793674 -0.20403633 -0.07370823 -0.29979685
-0.07055112 -0.20006868 -0.367355 -0.05950155 0.11594513 -0.31101862 -0.19499956 -0.5286543
-0.059439402 -0.35726023 -0.111235365 -0.2690723 0.23985073 -0.080308944 -0.17817608 -0.17315824
0.51882875 -0.22984831 -0.43170327 -0.19052202 0.3773769 -0.38556933 -0.3433816 -0.19408242
-0.18842532 0.19800721 -0.50793725 -0.08052257 -0.08464342 -0.14077976 -0.2150197 -0.00095875
-0.021263327 -0.37340134 -0.24697421 -0.08574987 -0.4869563 -0.16269189 -0.018326301 -0.56679827
-0.03202918 -0.3793485 -0.2357911 0.31765944 -0.21370792 -0.37885922 -0.36880547 0.22988461
-0.31126085 -0.55959773 0.21989971 -0.5613777 -0.13709293 -0.14672272 -0.5092337 -0.25941214
0.078662686 -0.12746917 -0.26118585 -0.070863135 -0.103010274 0.06350527 -0.09447935 -0.38072553
-0.04900421 0.24228519 -0.21513747 -0.092172794 0.12241134 -0.24422984 -0.30858874 -0.3339841
0.21035203 -0.054641426 -0.6194059 -0.62145346 -0.5579714 0.03925924 -0.32696116 0.26122275
0.120265506 -0.18659464 -0.34435084 -0.3206377 -0.29016456 -0.24215555 -0.22056915 -0.3771638
0.07602537 -0.12531619 0.08756034 -0.031111037 -0.23428792 -0.3798937 -0.05937439 -0.34123528

fc2.weight f4 [128, 128]
00000000: ed2f 483c 23ce 133b 540d d2bd e24a 8b3d
00000010: 536b 80bd c65a 713c 72d2 2abd 3fed c1bd
00000020: c899 833c 5f09 29bd 153f cabb e5cc 8dbb
00000030: eef0 47bd 6b58 71ba 7722 be3c e5c4 283b
00000040: 0e59 c5bd 87fd 9cbd 050d 0d3d fd10 c2bd
00000050: b60f 07bb f3d1 eb3b 5c37 e23c a80a 00bd
00000060: 4de9 3f3b b4ce ab3c 4690 4abc 23aa 6abd
00000070: dca9 0f3d 92b9 acbd 2cbe 94bd acba 86bc
00000080: b5aa 0bbe 4537 393c dc88 1f3d eab3 91bd
00000090: 5efa 9bbd d83d cbbd ac22 e13c e297 84bd
000000a0: fad7 10bd 6bc2 ccbd 7058 1ebb 295b 10bd
000000b0: 56c1 793c f00d 01bd dd8c ce3c 107a 05bd
000000c0: 04ab 193d 134d b6bd b93c 773d 72e2 b1bc
000000d0: 4c12 64bd 1166 d8bd 1808 a5bd 22cf 72bd
000000e0: 2b3d b6bd 2c93 fc3c e6ab fe3c d496 a1bc
000000f0: 4cc8 e13c f3ff e13b c861 843d f27b fb3c
00000100: b494 903d 998e 70bd dca2 293d 88a6 c9bd
00000110: 3697 343c 20ce 97bd 715e 853b 921a 0dba
00000120: e8c1 3cbe 9edb 053c 30ee 86bd db89 13bd
00000130: f2af dbbc e13e b2bd a4f5 c2bd 8458 343b
00000140: 8fd5 e73b e7df 343b 42ab 103d 47b8 4abd
00000150: 9a1f 40bd 2e36 fe3c 7ae8 f9bc e254 883d
00000160: 4512 5fbc c009 9fbd 6805 f0bd 852a 3abd
00000170: 3b1d 7dbd 9342 933c 21d3 943c 42b0 40bd
00000180: dc93 9ebb 2fd4 ab3c 7ab1 87bc 2ebb 16bc
00000190: d6eb 823c 3885 893d 5334 8c3d a8f3 d0bd
000001a0: 4612 70bd fdd9 88bd 93bb 47bd c80d cfbd
000001b0: be29 c3bd f84a 2f3d d89e 5a3c 8240 6a3d
000001c0: 4ac9 5fbd b097 d23c 8320 cdbd eb44 163a
000001d0: 8e15 0fbd 88ce b6bb 2b17 50bd 9f64 03bb
000001e0: 99b5 afbc 319b e2bd 6a72 23bd 8940 22bd
000001f0: b6d8 92bd 6f8e 7b3d ccb8 bcbb 9637 2c3d
00000200: 592e 6dbe acbb a83e e0f8 453e a746 ea3e
00000210: a04a 21bd 52b9 613e 4ce1 49be 3a36 8fbe
00000220: e50d 52bf ae25 a33e 8ed2 92be 8832 a5be
00000230: 8369 3abe 348d b23e cfdc b63e 9959 dd3e
00000240: 6687 333e 3511 c93d 4806 103e c886 56be
00000250: a389 01bf b783 2ebd ce6f 883d c390 cbbd
00000260: 459e 033e f3aa 8d3e 8fdd b0be a106 51bd
00000270: 3345 ee3d df0f 7bbe 95e0 a7be 1167 a3bd
00000280: b39d 80be eb9f 9bbe 691d 323e 6f1f 5bbe
00000290: 19f5 893e 9839 fbbe c330 32be f574 303e
000002a0: 4cb8 863d e558 343e c4ff 85bd 97c7 db3c
000002b0: d663 3dbe d3ea 403e f393 033f 6955 46bd
000002c0: 0d3e c5be daf3 0dbe f6c7 4cbe 9a25 b03e
000002d0: 0129 fdbe 2fbd f5be 7c42 423e d511 59bf
000002e0: c2c4 c9be 1cf4 8fbe e121 253f dac4 3dbe
000002f0: d1d5 30bd 38c2 a6bd 101b ad3d 8b32 e5bd
00000300: 7dfa 463e 4731 df3d 2237 cabd 3fd9 553d
00000310: 2491 183f 4bc6 8b3e 2c4f 60bf 3a98 09bd
00000320: da55 c7bd cb03 5b3e 2c35 80bd c338 55bd
00000330: 048c 9dbc 7f2e de3e c00e 84be 260e 553e
00000340: 528c 643f d281 783e 96cf a9be 99b0 6b3e
00000350: 3000 d2be fbd6 363b 78bd 91be de63 c03c
00000360: 2512 823d 35b4 c03d 59ef 1bbf 7e7f 2fbf
00000370: 196e 003e 84a4 cfbc 4261 ac3e 9d4e 673f
00000380: d381 983d 4a83 3cbe a58d b4be 77a2 05be
00000390: d90f 373e 05bd 03be 5eac f83d 05f7 febe
000003a0: 423f c4bd 5726 2f3f cc09 823d 2252 993d
000003b0: 7ae4 953e 3f5e d33b 71ee ae3e ae1e b53e
000003c0: adcc 43be 748c 503e 0a67 7c3d b322 8f3f
000003d0: 6bb1 abbe 045a c23e fa55 a8bd 0680 c63e
000003e0: 2fb9 2bbf 5358 0b3c 3735 bebd efa0 4abe
000003f0: 79b6 df3e 463e 423e 06f5 3f3f 82ca 0e3e
0.012218458 0.0022553287 -0.102564484 0.06801392 -0.062704705 0.014731115 -0.041704603 -0.09469079
0.01606454 -0.041268703 -0.0061720707 -0.004327404 -0.048813753 -0.0009206596 0.023209793 0.0025752124
-0.096361265 -0.07665544 0.034436245 -0.094758965 -0.002060873 0.0071966588 0.027614288 -0.031260163
0.0029283345 0.020972587 -0.012363499 -0.05729116 0.0350741 -0.08433832 -0.07262835 -0.016446434
-0.13639338 0.011304681 0.03894888 -0.07114394 -0.07616113 -0.09923905 0.027482353 -0.06474282
-0.03536222 -0.0999802 -0.00241616 -0.035243187 0.015243849 -0.031507432 0.025213653 -0.03258711
0.03751661 -0.089014195 0.060360644 -0.021714423 -0.05568151 -0.105663426 -0.080581844 -0.05927957
-0.088983856 0.030831896 0.031087827 -0.01972524 0.02756133 0.0068969666 0.06463963 0.03069875
0.07059613 -0.05872974 0.04141508 -0.098462164 0.01102238 -0.07412362 0.004070096 -0.00053826824
-0.18433344 0.008170037 -0.065883994 -0.03602014 -0.026817296 -0.087033994 -0.095195085 0.002751858
0.0070750187 0.0027599277 0.035319574 -0.049492147 -0.046905138 0.031031694 -0.030506361 0.06656815
-0.013615196 -0.077655315 -0.11719781 -0.045450706 -0.061795454 0.017976081 0.01816708 -0.047043093
-0.0048394036 0.0209752 -0.01656412 -0.009199901 0.015981596 0.067148626 0.068459176 -0.10202724
-0.058611177 -0.06682203 -0.04876287 -0.101100504 -0.09529446 0.042796105 0.013343535 0.057190426
-0.054635324 0.025707096 -0.10015967 0.00057323155 -0.034932666 -0.0055788197 -0.050803345 -0.0020048989
-0.021448897 -0.11064757 -0.039904036 -0.039612327 -0.071702406 0.061415132 -0.005759334 0.0420452
-0.23162211 0.32955682 0.1933322 0.45757028 -0.03937781 0.2204335 -0.1971485 -0.2797106
-0.8205245 0.31864685 -0.28676265 -0.32265115 -0.18204312 0.34873354 0.3571534 0.4323242
0.17532119 0.09817735 0.14064896 -0.20949852 -0.5060064 -0.04260608 0.0666195 -0.099397205
0.12853344 0.27669486 -0.34544036 -0.051031712 0.116342925 -0.24517773 -0.3278853 -0.07978643
-0.25120315 -0.30395445 0.17394032 -0.2139871 0.26944807 -0.49067378 -0.17401414 0.17232116
0.065781206 0.17612036 -0.06542924 0.02682857 -0.18495116 0.18839578 0.5139763 -0.048421297
-0.38523903 -0.13862553 -0.19998154 0.34403688 -0.49445346 -0.47995898 0.18970674 -0.84792835
-0.39407927 -0.28115928 0.6450482 -0.18532124 -0.04317266 -0.08142513 0.084524274 -0.11191281
0.19431491 0.10898071 -0.09873797 0.052209135 0.59596467 0.27299723 -0.87620807 -0.03359244
-0.09733172 0.21388166 -0.06260142 -0.052056085 -0.019231804 0.4339485 -0.25792503 0.20806178
0.8927661 0.24268273 -0.33166188 0.23016585 -0.41015768 0.0027899134 -0.28464866 0.02348512
0.06351117 0.09409372 -0.6091209 -0.6855391 0.12541999 -0.025347002 0.33667952 0.9035433
0.07446637 -0.18409458 -0.35264316 -0.13050257 0.17877139 -0.12865074 0.121422514 -0.49797836
-0.09582378 0.68417877 0.06349525 0.07486369 0.29275876 0.006450444 0.3416629 0.3537497
-0.19121046 0.20366079 0.061621703 1.1182464 -0.33533797 0.379593 -0.08219524 0.3876955
-0.6707944 0.008504945 -0.09287494 -0.19787954 0.43693903 0.18969068 0.7498325 0.13944438

fc2.bias f4 [128]
00000000: b4be 0eb9 75a8 c7be 85c2 853b 44ee 3fbe
00000010: d1cd aa3c 1b9d 8dbe 9c86 13be 47b0 18bf
00000020: 7dd4 b3bd fb6e a4bd 8a4c 0ebe 5a41 a2be
00000030: 2c7a 2abe ce47 ddbd 6195 923e 56d0 0dbe
00000040: 7904 7fbe ea0e 3cbe 28e1 c8bd 9627 3ebe
00000050: 35d0 2d3c a64c 373c ed52 43be 3740 d8be
00000060: 5f89 8abe 2912 743e 5824 c4bd 5f6e 8fbe
00000070: 5af1 b3bd 8521 21bd d410 9fbe 8ee4 21bf
00000080: b4a0 83be 7781 4abd 2323 c8be d756 05be
00000090: af4c f83a 83ca 413d 53f4 b9bd 7655 d73d
000000a0: 23b5 15bf 31b6 39be 5cb1 fcbd 6485 c6bd
000000b0: ec0e 9cbd 4ee5 dcbe 3610 c3bd 71e7 22be
000000c0: 3ca3 0fbe 5c52 f7bd e520 4abe 3bb7 673d
000000d0: 5c5f 83bd a367 97bd cad1 0f3e 6de6 523e
000000e0: 6ffb e8bd 2f5c 5abe 9a03 643d 79dd 92bc
000000f0: 84c7 913d d1e2 74bd 286b 0bbf cf2d cdbe
00000100: f14b a4be 7c49 edbe 7717 9bbe cc0d 2cbe
00000110: dfbd b5bd 57b3 b43e 561e b9be e51f d4bc
00000120: d7e9 213e 0903 b6be 4d72 20bf 725a b737
00000130: 5798 92be 8ff4 8e3e 29dc 47be c6a9 e9be
00000140: e471 94be 7cae c5be a0b9 80be 19de 85be
00000150: f9e7 65be 717c e0bd d259 4cbe 494b 49be
00000160: 8a3b e73d 9c2b 883e 48ca 2fbf 85bb 87be
00000170: da4e 693e 188d 2fbe f4b1 923d dd6b 88bd
00000180: 6b9e fe3d a82c 0bbe 2985 273e f230 193e
00000190: 805d 933e 7bcc 803c 103f 1abe 8df0 9dbe
000001a0: a7a2 8bbe 3080 3ebe 45bf 1039 4b96 afbe
000001b0: 1d02 95be 922e 06bf 0e07 a0be 1777 ffbe
000001c0: 700c 0cbc fe9e 38be 6932 04be 62a5 cfbe
000001d0: 8977 d4bd b2a4 1d3c 9dc0 c23e 1c67 86be
000001e0: 2fa0 44bd 8f9c fd3d 852f c7be 8dc6 c3bc
000001f0: 5b8f 3a3c 487c 533e f216 673e 0374 2ebe
-0.00013613218 -0.3899571 0.0040820264 -0.18743235 0.020850094 -0.27658924 -0.14406818 -0.5964398
-0.08780763 -0.0802898 -0.13896385 -0.31690484 -0.16648167 -0.10804711 0.28629592 -0.13849005
-0.2490405 -0.18365064 -0.0980857 -0.18569788 0.010608722 0.011187708 -0.19074602 -0.42236492
-0.2705793 0.23835053 -0.095772445 -0.28013894 -0.087862685 -0.039338607 -0.31067526 -0.6323937
-0.25708544 -0.049439874 -0.39089307 -0.13021408 0.0018943752 0.04731227 -0.09079804 0.10514347
-0.5847952 -0.18135907 -0.12338516 -0.09693411 -0.076200336 -0.43143696 -0.09524576 -0.159086
-0.14027113 -0.12076256 -0.19739111 0.056571227 -0.06414673 -0.07392814 0.14044872 0.20595713
-0.11376082 -0.21324228 0.055667497 -0.017927872 0.07118133 -0.05978662 -0.5446038 -0.40074012
-0.3208919 -0.46345127 -0.3029134 -0.16802138 -0.08874106 0.35293075 -0.36155957 -0.025894115
0.15811859 -0.3554919 -0.6267441 2.1857417e-05 -0.2863185 0.27920958 -0.19517578 -0.4563734
-0.28993142 -0.38609684 -0.2514162 -0.2614601 -0.22451772 -0.10961235 -0.19956139 -0.19657625
0.11290653 0.2659577 -0.6866803 -0.26510254 0.22783986 -0.17143667 0.07162848 -0.06661198
0.124325596 -0.13591254 0.1635939 0.14960077 0.28782272 0.015722504 -0.15063119 -0.30847588
-0.2727253 -0.18603587 0.00013804164 -0.34294352 -0.29103175 -0.5241481 -0.31255382 -0.49895546
-0.008547887 -0.180294 -0.12909855 -0.40555865 -0.10374362 0.009621786 0.38037577 -0.2625054
-0.048004325 0.12383377 -0.38903442 -0.023898387 0.011386718 0.20652878 0.22567347 -0.17036442

fc3.weight f4 [2, 128]
00000000: 4b02 afbb d255 aa3c 970d 4abc e19b cfbe
00000010: da82 34be 4853 293f e706 df3e f819 16bf
00000020: 92ff 48bc c85e e63d 4ce4 963e 228e 98bd
00000030: cb3b 153e 98bb a63c 1794 303e f097 1fbf
00000040: c81c 283d d71d 53be 50e7 563c 866c 3abf
00000050: f8f9 bebe d94a 2fbe b7e2 0f3d 2c05 293f
00000060: af8d fc3e d0b8 15bf d0b7 a43c b9a2 21bf
00000070: 4ca6 3abe 9d23 4bbf caf0 783e a060 f73d
00000080: 8785 e8be f3f4 b2be 4c4d 87be 441b 02bd
00000090: 1074 4c3b 33b9 b2be cab3 053c e48a 8b3c
000000a0: 51e4 bd3e 91fd cd3e 74b4 19bf 5957 083e
000000b0: fc92 06be d129 183f de1b fd3e 293e 1cbe
000000c0: 45dc 413c 614b 7fbb 7663 cebe bee0 56bf
000000d0: bf78 333c 72fa edbc 0956 13bf 592e b7be
000000e0: b310 36be 33a7 213d 5182 e3bc e4d9 43bb
000000f0: dcd0 db3d d6fc 71bd 8523 bbbd b429 0bbe
00000100: a5e1 cebe 1b14 7c3d 0b39 193f 156b 4c3c
00000110: 08ac 41bf 7522 0e3e da73 b63e 6a09 42be
00000120: c855 293b 7983 c63e feae e83c 2c91 a0be
00000130: b412 143f 9dd1 30be 57c5 26be a038 1a3e
00000140: be78 aa3e 5794 2f3d 9de7 3d3e b494 4fbf
00000150: f3b3 c83b 0989 2cbf b529 3f3e d97f 1b3e
00000160: 8efc aa3e 0b25 05be 8f9e 7d3e b0cf 9e3f
00000170: ba26 59bd b1e6 003f 97ea 94be 8bed 84be
00000180: 3b5f 1abe d13f 38bc 1c1b 153d 323f 24bf
00000190: 7c32 8c3e c98b 04bf 2a7b ba3d 70ff 53bb
000001a0: 0e96 aebd 8c45 de3d cb4f ab3d a0f2 f23e
000001b0: 9bcb 68be b33d 35bf 15fe 53bf eabc 07bf
000001c0: daa8 9cbc 56c9 17be a39c d43b 7ac8 30be
000001d0: 6017 edbb 2b4b 78be fb6e 0c3e fc29 5fbe
000001e0: 993a 76bc f7bd e93c bdf0 333f af94 0e3d
000001f0: 27fd 0d3f 82ee 08bf c03f aa3e a632 1c3e
00000200: 2e39 ba3a f2bb 4fbf bdfb 1ebc f246 0b3f
00000210: 153e 42be ee3e a43e 96f4 12be 63e3 67be
00000220: 466f f3bd 90c0 f83e 71e6 3c3e fe67 39bf
00000230: 3b41 093f b632 dc39 bb79 df3e 598c 533f
00000240: 4fb0 e53e 7b16 0abe 67d0 1cbc 9eac 20bf
00000250: 1986 b6be 1c66 043f d7aa 253e 66e9 ccbc
00000260: cc41 b9be b91d 533f d17d 9e3b bcad cf3e
00000270: 5497 ddbd 7b45 dabd c382 c0be f5df fd3e
00000280: 3f1e 80be 6ba9 923e c6d2 a93e 10c3 70bf
00000290: 7b4a 22bc 65cb 0d3f 0f8a c8bc 8497 573f
000002a0: 3ea8 083f 9871 82bf 52d4 fd3e b0ae a53f
000002b0: 0c5d a8be 2920 c7be 9bdf 123f 303d 79bf
000002c0: b330 df3c 2083 f63c 1790 b23d 900e c33e
000002d0: e6fc cabb 8176 4d3c 2bba 0d3e 8277 01bf
000002e0: fd38 eabd 0480 04bf 6796 2cbe cf24 b13e
000002f0: 515d 4d3f d1b7 41bf 7de0 773e 1650 6ebd
00000300: 3e54 8bbe 72ef 08bf d2a2 4ebf f7b0 1c3c
00000310: 8dc9 3c3f c24f 9c3e f76f cc3e f9ca b53e
00000320: 0624 b9bf 296d 20be 912f 573f e966 14be
00000330: e4ea 20be 8615 6bbf 42ee 263e 6301 bb3e
00000340: 7726 e73e 181c 1abf cdf8 113f b0a4 31be
00000350: b2a4 37bf b8c5 1cbe 67e9 8fbf b0e6 10bf
00000360: 6446 0abf 0815 78bf 29ec 37bf e3e5 573e
00000370: 4e0b b9be 70d9 323e 6afd 473f 2ccb c5bd
00000380: 3d41 903e dabc 923f 2022 3d3f 4af9 f4bd
00000390: 1cf6 3cbe d122 2bbd a5c1 7e3e 81df 2fbf
000003a0: a152 c9be 5c3b 6ebf 6f1e 773e 2a4d 81bd
000003b0: 0228 9d3e cc24 ecbe e907 5b3e 43a2 af3e
000003c0: 2ce4 18bf 464a 57bf 183f bfbb feb0 babe
000003d0: 9007 dcbc d133 e13e 5ff5 2fbf bc04 123d
000003e0: 2f04 73bc d10f 1d3f 26cb 883e 42fc 2f3d
000003f0: 4350 233f 21bb 913e 5488 ef3d b668 e13e
-0.0053408495 0.020792875 -0.012332342 -0.40548614 -0.17628041 0.661427 0.43559954 -0.58633375
-0.012267964 0.11248547 0.29471052 -0.07448985 0.1457359 0.020353124 0.17243992 -0.62341213
0.041043073 -0.20616852 0.013116673 -0.72821844 -0.37300086 -0.17118396 0.03512832 0.66023517
0.49326846 -0.58485126 0.02010718 -0.6313892 -0.182275 -0.79351217 0.24310604 0.12078977
-0.45414373 -0.34952506 -0.2642616 -0.031764284 0.0031197108 -0.3490692 0.008160541 0.017034002
0.37088254 0.40232518 -0.60040975 0.1331457 -0.13142008 0.59438807 0.49435323 -0.15258087
0.0118323015 -0.0038954841 -0.40310258 -0.8393668 0.010954081 -0.029050086 -0.57553154 -0.35777548
-0.17779808 0.039466094 -0.0277721 -0.0029884512 0.10733196 -0.059079014 -0.09137634 -0.13590127
-0.40406528 0.06154261 0.59852666 0.012476702 -0.75653124 0.13880332 0.35635263 -0.18948904
0.0025838483 0.3877218 0.028403755 -0.31360757 0.5784104 -0.17267461 -0.16286217 0.15060663
0.33295244 0.042866077 0.18545385 -0.8108628 0.0061249672 -0.673966 0.18668254 0.15185489
0.3339581 -0.13002412 0.24767517 1.2407131 -0.05301545 0.5035201 -0.29085228 -0.2596248
-0.1507539 -0.011245684 0.036402807 -0.6415893 0.27382267 -0.51775795 0.09105523 -0.0032348298
-0.085247144 0.10853109 0.08364829 0.47450733 -0.2273392 -0.7079727 -0.82809573 -0.53022635
-0.019123483 -0.14822897 0.006488399 -0.17263976 -0.0072354525 -0.24247424 0.1371421 -0.2179336
-0.015028619 0.028532965 0.7028921 0.034809764 0.55464405 -0.53488934 0.33251762 0.15253696
0.0014207715 -0.81146157 -0.009703574 0.5440513 -0.18968995 0.32079262 -0.14351115 -0.22645335
-0.11886458 0.48584414 0.18447281 -0.72424304 0.5361516 0.00041999453 0.4364756 0.8263603
0.44861075 -0.13485138 -0.009571171 -0.6276339 -0.35649183 0.51718307 0.16178451 -0.025013637
-0.36183012 0.8246723 0.004836776 0.40562236 -0.10819879 -0.106577836 -0.37599763 0.49584928
-0.25023076 0.2864488 0.3316862 -0.9404764 -0.009905453 0.5538848 -0.024479894 0.8421557
0.5338172 -1.0190916 0.4957605 1.2943935 -0.3288349 -0.38891724 0.57372445 -0.9735899
0.027244901 0.030091822 0.08718889 0.38097048 -0.0061946986 0.012540461 0.13840549 -0.5057298
-0.11436651 -0.51757836 -0.16854249 0.34598395 0.80220515 -0.75671107 0.24206729 -0.058181845
-0.2721271 -0.53490365 -0.80717194 0.009563676 0.7374504 0.305296 0.39929172 0.35506418
-1.4464118 -0.15666641 0.84056956 -0.14492382 -0.15714604 -0.9182972 0.16301826 0.36524495
0.45146534 -0.6019912 0.57020265 -0.1734798 -0.7173568 -0.15309799 -1.1243104 -0.56602
-0.5401366 -0.9690709 -0.71844727 0.21083789 -0.36141437 0.17465758 0.78121054 -0.096578926
0.28174773 1.1463883 0.73880196 -0.119616106 -0.18453258 -0.04178125 0.24878557 -0.68700415
-0.39320853 -0.93059325 0.24132703 -0.06313546 0.30694586 -0.46121824 0.21389736 0.34303483
-0.5972316 -0.8409771 -0.005836379 -0.3646316 -0.026859075 0.43984845 -0.6873378 0.035649046
-0.01483254 0.6135226 0.2671749 0.04296518 0.63794345 0.2846308 0.116959244 0.440252

fc3.bias f4 [2]
00000000: 266e febd bfdc 38be
-0.12423353 -0.18052958
